best_beam_model.pth (torch, 900589 bytes, 11 tensors)

emb.weight f4 [2097, 16]
6.339416 -3.8339267 -2.433059 -2.877127 -6.653729 -0.038467094 -1.2296478 -6.974592
-0.06733687 2.0982764 -6.563711 -2.6480641 -1.4789208 1.3577839 0.48984903 2.074043
2.8029306 -6.234259 -2.4760275 -0.24701568 -8.361025 3.4159365 0.14548366 -5.879615
1.9899522 -2.5666533 -4.3541594 -3.756049 3.8199666 5.6989584 -0.76120526 2.7203107
0.5647758 5.491137 1.4584417 -2.2259905 0.026809983 0.6299108 -3.8019142 -7.294973
0.27363208 -2.7999318 1.1856657 -2.694717 3.3866506 0.43711868 -3.535459 8.694593
4.1921816 -4.168697 -6.3162074 -2.28082 -8.072352 3.0972497 -0.005905211 -5.2259226
2.2875152 0.8347822 -1.5684613 3.2927775 1.6084006 3.150692 2.2555504 -0.25356168
-2.8909357 -1.1049323 5.43159 -2.815911 -2.5873356 0.21714015 2.3153143 1.9568186
0.7975333 3.9488604 -3.8840668 -3.6792796 -1.6767409 -0.94402474 -0.8891632 4.026671
-0.29054517 -0.14234637 3.3405573 -0.91135764 -2.6422367 1.1182032 0.5597858 0.076817915
1.5120627 -1.5253963 1.728455 -0.2111737 2.4334848 -3.0334294 2.3527448 -1.2213085
-1.0489771 0.1623493 -3.5010562 -1.2098707 2.8514476 2.3106532 -0.9706191 1.1404595
2.9577267 5.0546627 2.7733839 0.7120359 2.5528965 -1.0374101 0.067301854 5.4472566
-1.6138448 -2.5999167 1.0891275 2.3676074 -2.267328 0.28137726 1.4366015 0.4161382
1.257448 3.3727798 -1.3068563 -2.1915476 -2.4073486 -1.7730734 0.23512827 4.269455
6.6085615 4.5474515 1.8334748 0.7362102 -4.578789 4.7576456 -6.8240676 1.6470494
-3.8247848 -2.4507244 -2.934734 7.266937 -6.1747665 5.130863 -7.1443987 2.479481
-0.96684027 0.8539769 1.8242353 -0.093254074 -2.441778 -1.0571495 1.4465717 -3.8454
2.8417 1.2454888 -0.5099457 -1.8640553 3.7239766 -2.1220248 1.0508653 2.370686
-0.24376175 0.67070407 1.2445104 4.055387 -5.0658607 -1.0789338 2.5110605 0.3200227
0.17451933 1.2695843 -4.007472 2.0700028 -1.0312272 -4.39767 4.2967286 3.8427682
2.9587574 -6.2416415 -5.784288 -3.7753367 -8.196963 -0.7754381 0.8995954 -8.102276
0.92991036 -0.14071015 -3.667255 -5.982455 3.485591 -0.44350496 -2.2671597 4.188435
-3.673948 2.8290536 1.6587384 -0.5453166 -2.8583524 -1.5205796 1.5173022 -4.645015
4.103682 1.0261497 -7.162077 -4.5748 -1.4532633 0.78523606 5.8471775 8.122844
-6.6569777 -0.7241267 2.6394138 2.3686142 -6.6924906 -0.93423873 0.7575102 -4.662022
-2.0287054 4.288811 -1.2073737 -2.588045 1.7834264 -3.2559845 5.3774004 -4.767213
-0.8853886 -1.1319821 0.61396796 -0.5039884 -2.9419 -2.9039457 0.5695267 -3.6860046
6.5763927 2.5506437 2.9074216 -1.4043425 1.9520575 -4.186979 -2.1439958 2.8527923
-4.032368 -5.16951 -0.37108395 -2.7544096 -5.927041 1.4430548 -0.8967002 -7.882174
2.7433336 0.23831093 0.63436025 -4.7576575 -0.80014706 1.3524425 0.13512172 -1.5309346
00000000: 7fdc ca40 0e5f 75c0 3db7 1bc0 d922 38c0
00000010: 59eb d4c0 ac8f 1dbd 1965 9dbf dc2f dfc0
00000020: eae7 89bd 294a 0640 ec09 d2c0 e279 29c0
00000030: 474d bdbf ddcb ad3f 7ecd fa3e 1fbd 0440
00000040: 3763 3340 0d7f c7c0 3c77 1ec0 aef1 7cbe
00000050: c2c6 05c1 b49e 5a40 abf9 143e ce25 bcc0
00000060: c1b6 fe3f 0c44 24c0 4655 8bc0 1b63 70c0
00000070: 557a 7440 de5d b640 59de 42bf 9219 2e40
00000080: 2695 103f 65b7 af40 38ae ba3f a176 0ec0
00000090: 9ca0 db3c d641 213f 9052 73c0 6b70 e9c0
000000a0: 8119 8c3e 1532 33c0 e5c3 973f 3e76 2cc0
000000b0: e2be 5840 05ce df3e f644 62c0 0e1d 0b41
000000c0: 5a26 8640 f765 85c0 5f1e cac0 f4f8 11c0
000000d0: 5b28 01c1 5739 4640 8080 c1bb c23a a7c0
000000e0: a666 1240 49b4 553f 57c3 c8bf debc 5240
000000f0: 12e0 cd3f f0a4 4940 f05a 1040 d6d2 81be
00000100: 1705 39c0 6c6e 8dbf 96cf ad40 e337 34c0
00000110: e896 25c0 fd59 5e3e 1c2e 1440 0879 fa3f
00000120: 242b 4c3f 21ba 7c40 8d94 78c0 5179 6bc0
00000130: 729f d6bf 9bab 71bf 33a0 63bf 7dda 8040
00000140: 56c2 94be 3fc3 11be b1cb 5540 bc4e 69bf
00000150: 681a 29c0 4821 8f3f 1f4e 0f3f b652 9d3d
00000160: 458b c13f 3040 c3bf 033e dd3f eb3d 58be
00000170: 37be 1b40 b523 42c0 5f93 1640 d653 9cbf
00000180: e244 86bf e53e 263e 4e11 60c0 0bdd 9abf
00000190: 1e7e 3640 bee1 1340 7e7a 78bf 94fa 913f
000001a0: 654b 3d40 ccbf a140 1f7f 3140 fc47 363f
000001b0: a862 2340 dbc9 84bf 8ed5 893d ed4f ae40
000001c0: 7792 cebf 0965 26c0 8868 8b3f e186 1740
000001d0: e71b 11c0 ae10 903e 8fe2 b73f 1110 d53e
000001e0: 0ef4 a03f a0db 5740 1147 a7bf 5142 0cc0
000001f0: 0012 1ac0 12f4 e2bf 77c5 703e 609f 8840
00000200: 5679 d340 b984 9140 4daf ea3f 4678 3c3f
00000210: 7185 92c0 a23e 9840 c35e dac0 84d2 d23f
00000220: 46c9 74c0 abd8 1cc0 afd2 3bc0 bf8a e840
00000230: b097 c5c0 0830 a440 ea9e e4c0 d1af 1e40
00000240: d882 77bf 3b9e 5a3f 8b80 e93f fefb bebd
00000250: 1746 1cc0 ad50 87bf 4329 b93f 091b 76c0
00000260: 6ade 3540 2d6c 9f3f cd8b 02bf 5d99 eebf
00000270: a255 6e40 41cf 07c0 c182 863f 52b9 1740
00000280: ae9c 79be 43b3 2b3f 1e4c 9f3f bbc5 8140
00000290: 881b a2c0 811a 8abf 37b5 2040 04da a33e
000002a0: 32b5 323e bd81 a23f 363d 80c0 ed7a 0440
000002b0: 41ff 83bf b6b9 8cc0 cd7e 8940 eaef 7540
000002c0: 485c 3d40 87bb c7c0 e318 b9c0 1e9f 71c0
000002d0: c326 03c1 1c83 46bf e24b 663f eca2 01c1
000002e0: 9b0e 6e3f 5216 10be 4eb4 6ac0 4570 bfc0
000002f0: ec13 5f40 1513 e3be 2519 11c0 a907 8640
00000300: f721 6bc0 370f 3540 8a51 d43f de99 0bbf
00000310: 3fef 36c0 5aa2 c2bf f536 c23f f6a3 94c0
00000320: 5d51 8340 e058 833f bc2f e5c0 c364 92c0
00000330: 8804 babf 3b05 493f 141c bb40 2bf7 0141
00000340: f605 d5c0 5e60 39bf 28ec 2840 6097 1740
00000350: e228 d6c0 452a 6fbf 30ec 413f 492f 95c0
00000360: 4fd6 01c0 f13d 8940 398b 9abf 87a2 25c0
00000370: 5147 e43f 0d62 50c0 aa13 ac40 028d 98c0
00000380: d4a8 62bf cae4 90bf 012d 1d3f 6205 01bf
00000390: 1748 3cc0 3fda 39c0 80cc 113f 80e7 6bc0
000003a0: cf71 d240 bf3d 2340 3213 3a40 7fc1 b3bf
000003b0: 05dd f93f bbfb 85c0 3a37 09c0 2694 3640
000003c0: 2909 81c0 a06c a5c0 b7fe bdbe 3f48 30c0
000003d0: 52aa bdc0 05b6 b83f 258e 65bf c53a fcc0
000003e0: c792 2f40 c807 743e 6f65 223f bb3e 98c0
000003f0: 70d6 4cbf d61c ad3f 595d 0a3e aaf5 c3bf

rnn.weight_ih_l0 f4 [256, 16]
-0.0036153551 -0.24277459 -0.4513836 0.25726825 -0.14622305 0.20918788 0.4404467 -0.22281705
-0.5145919 0.44876343 -0.22352423 -0.5693936 -0.04614392 0.2652637 0.1271816 0.593214
0.21822491 -0.07868198 0.6356101 0.0061044935 -0.5725152 -0.16229804 0.050755803 -0.86735755
-0.09580164 -0.23078813 0.16764833 0.3661455 0.77147365 0.16602282 1.1965219 0.053551063
0.58931756 -0.08651169 0.14422943 0.66798174 -0.14330827 0.0739018 -0.9192371 0.13831095
-0.5630571 0.17671706 0.2590581 0.2034943 0.6615332 0.9792754 0.7809818 0.55271035
-0.27111295 0.058839772 0.37012708 -0.46465918 -0.0041116346 0.44993553 0.14849071 -0.12991893
-0.30519494 -0.1463435 0.029455448 0.018255971 0.22833051 0.16670996 -0.041091595 0.077856086
0.049461626 -0.18659969 0.37359855 -0.06092974 0.037756007 0.29998517 0.23677313 0.21413891
0.6373399 -0.5583753 -0.018240992 -0.74911296 0.17508933 0.0020256874 0.0541255 0.7844149
-0.6370218 0.44901454 -0.43766317 0.38253075 0.46084413 0.12973218 0.037253734 0.19884758
0.9787333 0.7072355 0.61729914 1.2600434 -0.3154845 0.47646442 -0.10458692 0.14710917
1.5001562 -0.25640568 0.031240506 -0.26428577 -0.10611809 0.065133676 0.048939843 -0.22398272
0.64248514 0.5093082 -0.49297982 -1.2895342 -0.889099 0.3675656 0.08547611 -0.18919149
0.57107306 0.22102815 -0.08673561 -0.6835248 -0.6092555 -0.07215383 -0.6971759 -0.32467663
-0.0650704 -0.6322532 -0.37225682 1.0048716 0.7788934 -0.5694087 0.3753549 0.2477126
0.41153595 -0.55940115 0.88442105 0.52701616 0.32125133 1.1244711 -0.8274786 0.34342515
0.1876876 0.12943567 -0.1557956 -0.08149604 -0.103099376 0.30724844 0.2729458 -0.10499012
-0.13353957 0.06625673 -0.43032128 0.50080466 0.42029995 -0.60961944 0.15041515 -0.249951
0.07228528 0.7257865 0.4634083 -0.07550153 0.14103884 -0.27400148 -0.21250212 -0.5151943
0.02264003 -0.25478467 -1.2211947 -0.20182395 0.1870285 -1.1480236 1.2419934 0.2730719
0.25625822 -0.38881087 0.8119852 -0.41785526 -0.7083128 -0.3189427 -0.37208748 0.48763537
-0.08011115 -0.42505908 0.32771254 -0.3599677 -0.33696198 0.7823278 0.2985701 0.29064548
-0.13647914 0.3658022 1.007784 -0.32091615 -0.69164294 -0.21856937 0.3766086 -0.0058226986
0.010235847 -0.33504564 -0.071257934 0.21677843 0.12601447 0.22473225 -0.14677396 0.14095058
-0.6081427 -0.53037405 -0.22743957 0.157641 0.3356292 -0.0759634 0.046949334 -0.38199285
-0.23140234 0.3306623 -0.08724685 0.51705563 0.15898725 -0.21467587 -0.2403051 -0.30620784
0.063870244 -1.164589 -0.09416308 -0.44642437 -0.43465784 0.39613795 0.5400553 0.22486944
0.8380181 -0.5897797 0.17704982 -0.42581388 -0.7109521 0.054842222 -0.5691258 0.26434547
0.3904733 0.058037963 -0.14739226 -0.53775555 -0.16009857 0.17767623 -0.036357608 -0.04802476
-0.31709492 0.4638494 0.24939223 -0.9939786 -0.4300006 -0.417878 0.29661122 -0.52775097
0.37103868 0.14332879 -0.42165834 -0.60245514 -0.081213325 0.08171067 -0.19793965 0.2764523
00000000: 98ef 6cbb e799 78be c01b e7be aab8 833e
00000010: 7fbb 15be 5935 563e 3b82 e13e 272a 64be
00000020: 4bbc 03bf 52c4 e53e 89e3 64be c7c3 11bf
00000030: 6801 3dbd a5d0 873e e53b 023e dfdc 173f
00000040: 5a76 5f3e 0524 a1bd 58b7 223f 3408 c83b
00000050: 5b90 12bf 7531 26be 51e5 4f3d 250b 5ebf
00000060: a633 c4bd b953 6cbe 01ac 2b3e 6c77 bb3e
00000070: 4c7f 453f e301 2a3e a127 993f 5c58 5b3d
00000080: 84dd 163f 0a2d b1bd e1b0 133e da00 2b3f
00000090: 67bf 12be d459 973d 1f53 6bbf 63a1 0d3e
000000a0: 8324 10bf 51f5 343e 43a3 843e cf60 503e
000000b0: 3d5a 293f cbb1 7a3f 6cee 473f 6d7e 0d3f
000000c0: 51cf 8abe f901 713d 4c81 bd3e cfe7 edbe
000000d0: e4ba 86bb f35d e63e f30d 183e 7809 05be
000000e0: 8342 9cbe 12db 15be 8d4c f13c 8c8d 953c
000000f0: 79cf 693e 04b6 2a3e a94f 28bd 0373 9f3d
00000100: 4698 4a3d fd13 3fbe 4f48 bf3e 7791 79bd
00000110: 0ba6 1a3d a897 993e a874 723e 3b47 5b3e
00000120: b528 233f aff1 0ebf 226e 95bc dec5 3fbf
00000130: 9e4a 333e 65c1 043b b3b2 5d3d 6acf 483f
00000140: dc13 23bf 3ce5 e53e 6315 e0be 12db c33e
00000150: c3f3 eb3e 83d8 043e 5f97 183d b39e 4b3e
00000160: 448e 7a3f 630d 353f 5107 1e3f 1a49 a13f
00000170: 2f87 a1be 25f3 f33e ab31 d6bd c9a3 163e
00000180: 1e05 c03f 9b47 83be 17ec ff3c 7750 87be
00000190: 7154 d9bd ce64 853d 2575 483d ba5b 65be
000001a0: e879 243f 0662 023f da67 fcbe 750f a5bf
000001b0: fe9b 63bf 8f31 bc3e 190e af3d 6abb 41be
000001c0: d831 123f 3455 623e 71a2 b1bd 7bfb 2ebf
000001d0: 2bf8 1bbf 63c5 93bd 1f7a 32bf 043c a6be
000001e0: a143 85bd 59db 21bf 7298 bebe a29f 803f
000001f0: 8f65 473f c5c4 11bf 842e c03e 5fa8 7d3e
00000200: d7b4 d23e ea34 0fbf 6b69 623f 88ea 063f
00000210: 0e7b a43e abee 8f3f a3d5 53bf 6cd5 af3e
00000220: 2e31 403e c98a 043e e288 1fbe 65e7 a6bd
00000230: c425 d3bd ab4f 9d3e 8dbf 8b3e 0f05 d7bd
00000240: 99be 08be 9cb1 873d 1253 dcbe bc34 003f
00000250: 8e31 d73e 0510 1cbf 6e06 1a3e 28f3 7fbe
00000260: 4e0a 943d 25cd 393f da43 ed3e 8ca0 9abd
00000270: 7c6c 103e ec49 8cbe 289a 59be c6e3 03bf
00000280: 9677 b93c 2373 82be 1c50 9cbf f0aa 4ebe
00000290: 6684 3f3e 70f2 92bf a4f9 9e3f 14d0 8b3e
000002a0: 4734 833e 3812 c7be 43de 4f3f 20f1 d5be
000002b0: fd53 35bf 754c a3be 4082 bebe 58ab f93e
000002c0: 5111 a4bd 58a1 d9be f0c9 a73e b04d b8be
000002d0: 4886 acbe a246 483f 2ede 983e 7ccf 943e
000002e0: 30c1 0bbe 6d4a bb3e 11ff 803f 1f4f a4be
000002f0: 830f 31bf a6d0 5fbe d8d2 c03e 56cc bebb
00000300: 41b4 273c 1a8b abbe aeef 91bd 2afb 5d3e
00000310: f009 013e 3620 663e ea4b 16be 5955 103e
00000320: 3daf 1bbf 98c6 07bf ebe5 68be a46c 213e
00000330: 97d7 ab3e b392 9bbd f24d 403d 9194 c3be
00000340: bcf4 6cbe 924c a93e 7aae b2bd c25d 043f
00000350: 8ecd 223e fed3 5bbe 8a12 76be 46c7 9cbe
00000360: 67ce 823d 4111 95bf 93d8 c0bd bc91 e4be
00000370: 798b debe 98d2 ca3e 1041 0a3f 2d44 663e
00000380: 5b88 563f cdfb 16bf 8c4c 353e 4704 dabe
00000390: f500 36bf 3da2 603d 3ab2 11bf 4a58 873e
000003a0: 1eec c73e 37b9 6d3d ffed 16be 59aa 09bf
000003b0: e1f0 23be c2f0 353e b7eb 14bd 9cb5 44bd
000003c0: 445a a2be ab7d ed3e ad60 7f3e 6275 7ebf
000003d0: 0a29 dcbe 1bf4 d5be 6ddd 973e b01a 07bf
000003e0: c8f8 bd3e c8c4 123e 9ae3 d7be 803a 1abf
000003f0: 2c53 a6bd ec57 a73d b1b0 4abe 288b 8d3e

rnn.weight_hh_l0 f4 [256, 64]
-0.3861978 -0.57037085 -0.8055726 1.0450438 -0.03601879 0.12984625 -0.8127733 -0.842718
-0.2576509 -1.2124919 -0.5090224 -0.52924424 0.42162806 0.55372214 -0.8701382 1.583123
-1.016147 -0.076156855 0.2904278 0.5724989 -0.7455736 0.20547819 0.5760581 -0.13375072
-0.6883198 0.8162371 0.09679179 0.60083306 2.110233 -0.29772353 0.78842056 -0.6999542
-0.8498857 1.1132848 0.22051662 1.0651722 0.13270712 -0.0044118525 0.52097976 -0.6993753
2.2987933 1.0261029 -0.32503757 -0.5110211 -0.19867088 -2.6308255 -0.615129 0.9248348
-0.33776522 0.58838075 0.10433313 -0.8906021 -0.934787 -0.06996103 0.31987607 0.16917664
-0.44790584 -1.2310683 0.7638925 0.9539082 -0.357663 -0.29361537 -0.7967336 -0.427671
-0.19330975 1.0695882 -0.25874355 0.7954683 0.7031382 -0.06969006 -0.08435216 -0.77622724
0.97556436 -0.578242 -0.8236916 0.015093924 -0.70534515 -0.59883195 -0.23450036 0.38700584
-0.26623505 -0.48728353 -0.59411114 0.32888898 1.3679223 -1.0058239 -0.3894894 0.15118104
-0.14409156 -0.016547704 0.5249346 0.715463 0.7381107 0.39885622 0.39891723 0.37761337
-0.6967853 1.3758371 -0.12617153 -0.46834046 1.2446806 -0.092110455 0.67349726 -0.40003377
0.058702163 -0.5760888 0.014820884 1.1933417 -0.017275067 -0.6935321 -0.38925558 1.430984
0.33442926 0.18358356 0.09010445 -0.8893128 -0.71448165 0.6857626 0.13747318 -0.7444961
0.3914878 -0.6007316 -0.08508003 0.61288893 -0.71144867 -0.60295945 -0.66915935 -0.21498322
0.00071132154 0.07919435 0.29828927 0.053430647 -0.5992171 0.14921057 0.47890207 -0.4185643
-0.3900809 0.039255768 -0.110435374 -0.41813713 -0.6857457 0.747758 0.27670068 0.85383594
-0.7046675 0.015206282 -0.21220253 -0.34799513 0.847521 0.44676018 0.03250202 -0.032403164
0.18867983 -0.07392771 -0.5055847 0.4510079 0.9768869 -0.37352678 0.9801802 -0.18633679
-0.025541937 -0.055857353 -0.09015552 -0.3020575 0.19872433 0.51732314 0.25932643 -0.14831688
0.85987526 -0.0562846 -0.23490436 0.4793785 0.021023128 -1.3720651 0.29626334 0.42456204
0.25666732 -0.9638496 0.58624965 -0.25448406 -0.30592892 0.36802417 -0.5099701 -0.8285318
-0.5347624 -0.37966594 -0.141538 0.74291563 0.47168475 0.08153862 -0.26392984 -0.84176767
0.22437139 -0.8196132 -0.54398155 -0.8800866 -0.46213117 -0.33498222 0.21897514 -0.42646608
0.5376021 -0.3506875 -0.8650635 0.8744583 0.61914086 0.7460829 -0.40813726 0.69901705
0.46247256 -1.1074252 -0.8887297 -0.44912735 0.4069773 0.4278032 -0.7148891 -0.80920196
0.7735059 1.2348423 -0.9517433 1.2804711 0.08286916 -0.5623365 -1.6107392 -0.6252665
-0.7090831 -0.47087684 0.117056586 0.10752561 0.41899145 -0.074017994 -0.25181696 0.52579606
2.0641246 0.31418562 0.64767194 0.61675656 -0.83911127 -1.6811225 0.004156712 1.5769995
-0.2534744 0.3392794 0.9130956 -1.2388642 -0.9041854 -0.16226594 -0.17273389 -1.7415293
-0.10531899 -1.6031911 0.5463847 2.5972357 0.13314542 0.6210183 -1.3902065 -1.8948851
00000000: b8bb c5be d303 12bf 023a 4ebf ffc3 853f
00000010: 7088 13bd 6af6 043e e911 50bf 5ebc 57bf
00000020: d2ea 83be ef32 9bbf 4b4f 02bf 8d7c 07bf
00000030: a2df d73e bcc0 0d3f 61c1 5ebf c6a3 ca3f
00000040: 1b11 82bf 20f8 9bbd f4b2 943e 4a8f 123f
00000050: e9dd 3ebf e068 523e 8b78 133f f3f5 08be
00000060: ba35 30bf eaf4 503f c63a c63d 32d0 193f
00000070: 0f0e 0740 386f 98be eed5 493f 3330 33bf
00000080: 1c92 59bf 1e80 8e3f 1ccf 613e 9057 883f
00000090: 60e4 073e 4d91 90bb ee5e 053f 420a 33bf
000000a0: 6e1f 1340 5757 833f 536b a6be 47d2 02bf
000000b0: 6170 4bbe 725f 28c0 1879 1dbf f9c1 6c3f
000000c0: 90ef acbe 1fa0 163f 9cac d53d 80fe 63bf
000000d0: 334e 6fbf ba47 8fbd ccc6 a33e a43c 2d3e
000000e0: ea53 e5be a593 9dbf 758e 433f 5433 743f
000000f0: 9b1f b7be c154 96be bcf6 4bbf b1f7 dabe
00000100: fef2 45be 44e8 883f 097a 84be cfa3 4b3f
00000110: dd00 343f aab9 8ebd d3c0 acbd d4b6 46bf
00000120: 96be 793f ab07 14bf 74dd 52bf 814c 773c
00000130: 8091 34bf 0d4d 19bf dd20 70be a125 c63e
00000140: f64f 88be 3a7d f9be ab17 18bf 2364 a83e
00000150: 1418 af3f d6be 80bf 286b c7be 34cf 1a3e
00000160: bd8c 13be 0d8f 87bc 1d62 063f 9528 373f
00000170: d3f4 3c3f e236 cc3e e13e cc3e 8a56 c13e
00000180: 8560 32bf 6e1b b03f 1c33 01be 52ca efbe
00000190: b251 9f3f 68a4 bcbd 516a 2c3f 3ad1 ccbe
000001a0: ae71 703d 8e7a 13bf 4bd3 723c 6cbf 983f
000001b0: 7184 8dbc 528b 31bf 824c c7be 7c2a b73f
000001c0: 503a ab3e 54fd 3b3e af88 b83d 01aa 63bf
000001d0: 45e8 36bf 238e 2f3f c5c5 0c3e 4c97 3ebf
000001e0: 1771 c83e 8cc9 19bf 703e aebd 4ae6 1c3f
000001f0: 8021 36bf 8d5b 1abf 074e 2bbf 9024 5cbe
00000200: fb77 3a3a a630 a23d 5fb9 983e 18da 5a3d
00000210: 4b66 19bf a8ca 183e a732 f53e 0f4e d6be
00000220: afb8 c7be a8ca 203d f12b e2bd 1216 d6be
00000230: 088d 2fbf 116d 3f3f b6ab 8d3e fe94 5a3f
00000240: 1765 34bf c523 793c 9f4b 59be 6b2c b2be
00000250: 23f7 583f c0bd e43e d720 053d 2eb9 04bd
00000260: 4935 413e 6967 97bd 006e 01bf 82ea e63e
00000270: 4315 7a3f e73e bfbe 17ed 7a3f 12cf 3ebe
00000280: 533d d1bc aeca 64bd 75a3 b8bd 48a7 9abe
00000290: 647e 4b3e 4a6f 043f 6fc6 843e 61e0 17be
000002a0: c920 5c3f ae8a 66bd c58a 70be 1971 f53e
000002b0: b238 ac3c d49f afbf d4af 973e 3260 d93e
000002c0: e669 833e d9be 76bf 7514 163f bc4b 82be
000002d0: b7a2 9cbe aa6d bc3e 678d 02bf a91a 54bf
000002e0: 30e6 08bf 9363 c2be 56ef 10be b82f 3e3f
000002f0: aa80 f13e b8fd a63d d021 87be 167e 57bf
00000300: 9dc1 653e 2cd2 51bf 6042 0bbf 5b4d 61bf
00000310: 759c ecbe ca82 abbe 053b 603e c359 dabe
00000320: 4ba0 093f 508d b3be cd74 5dbf 80dc 5f3f
00000330: 0480 1e3f 4aff 3e3f 5ef7 d0be c8f2 323f
00000340: 34c9 ec3e 1cc0 8dbf ca83 63bf 05f4 e5be
00000350: 545f d03e 0509 db3e f902 37bf dc27 4fbf
00000360: 7c04 463f 500f 9e3f 73a5 73bf 7ae6 a33f
00000370: 4eb7 a93d 49f5 0fbf b42c cebf 7711 20bf
00000380: 7886 35bf c516 f1be 5dbb ef3d 6336 dc3d
00000390: 0c86 d63e bf96 97bd 27ee 80be 929a 063f
000003a0: 9e1a 0440 f0dc a03e d4cd 253f c2e3 1d3f
000003b0: ffcf 56bf 062f d7bf 0735 883b 1fdb c93f
000003c0: 66c7 81be 08b6 ad3e a2c0 693f 1a93 9ebf
000003d0: b278 67bf 0b29 26be 27e1 30be 6fea debf
000003e0: 7cb1 d7bd 5e35 cdbf dedf 0b3f 1c39 2640
000003f0: 4657 083e 0efb 1e3f 49f2 b1bf 988b f2bf

rnn.bias_ih_l0 f4 [256]
1.4757208 -0.12033551 0.92819244 -1.3223968 0.59264094 -0.87906617 -0.7137745 -0.29551178
0.8275086 0.6825222 -0.11402844 0.14031388 1.4188132 0.83302414 1.2601151 -0.31979638
0.78221345 0.7378347 -0.35560957 -0.10034257 0.3407748 0.1232048 0.2655792 -0.7754223
0.003975031 -0.46446645 0.45288688 -0.85956043 1.2785674 -0.80695635 0.7143289 1.3552912
-0.3053253 0.8569744 -0.60629904 -1.2244817 0.9103272 0.77158743 1.1975275 1.9799669
0.8409158 -0.044975776 -0.27070782 0.14621136 0.73654115 -0.8272479 0.7405324 -0.41009104
0.79475343 0.53292567 0.8554779 -0.2923897 0.44244474 0.30096382 0.13991301 -0.72783715
0.44619602 0.24886577 0.4363444 -1.4225789 0.06741086 0.5625766 0.68340486 -0.43198952
-0.85532874 -0.5888251 -0.9724266 0.7758502 -1.7717386 -0.75785136 -0.10514124 -0.58572626
-1.1389217 -1.0814912 -1.280442 -0.4494385 -0.58675814 -0.48743084 -0.62016773 0.23749565
-0.99481946 -1.4640747 -0.51130825 -1.4804429 -0.81949025 -0.53128844 -0.2979345 0.039054982
-0.68827045 -0.30804497 -0.63042706 0.39178488 -0.01636898 -1.2163056 -1.2609317 -1.3580006
-1.0150148 -1.428316 0.3149056 -0.93751436 -0.6121288 -0.63775814 0.010838641 -0.654658
-0.63460255 -0.69249237 -1.4583148 -1.4599 -0.1917665 -0.59690434 -0.89645994 0.11864361
-0.6258198 -0.6772023 -1.0221672 -0.24355564 -1.2561071 -0.9188434 -0.9834065 -0.83221745
-0.9610137 0.13386671 -1.2139058 0.29789466 -0.7554888 -0.42005882 -0.2505811 -0.17017813
-0.062209785 -0.7915046 0.42448694 1.0155535 -0.16971058 -0.51470304 0.4820452 -0.6148341
0.2073667 -0.9071247 -0.6635027 -0.2497563 1.7248802 0.6456223 -0.7650392 0.56522894
0.7930144 -0.7388863 -0.61455566 -0.24222472 0.8831843 0.83799404 -0.92453086 0.010553629
0.0035253393 0.0946682 -0.818348 1.5372503 1.8363546 0.104803525 -0.30624616 0.36913505
-0.1659534 -0.30750588 0.9018203 -0.110166304 -0.41320255 1.3090352 -0.72786033 -0.29129294
0.44705963 1.2686279 0.6329777 0.29700547 -1.4866254 -0.73770434 -0.96503544 1.3466408
0.54536813 1.2432859 -0.19212884 -1.3986827 -0.2571742 -1.5906625 -0.94104683 -0.9920837
-0.61999273 -0.93536365 0.06216141 1.1158617 0.7624346 0.65040267 -0.950416 -1.1945412
0.83218586 1.148804 1.6161584 -0.38604382 1.0392102 -0.73781365 0.2880426 -0.6787294
0.527236 0.3283597 0.3381504 0.4132085 0.76855075 1.0996417 0.46766588 0.70432836
1.1934642 0.25429705 -0.42054114 0.6588292 0.92862654 0.014853686 0.6821715 -0.13229662
0.19483754 -0.27812305 0.85685664 -0.6726444 1.5472292 0.07420574 -0.10830265 0.6464117
-0.043068264 0.14988758 -0.06658129 -0.04648669 0.3388319 0.5937296 0.4746555 1.3042852
-0.6968392 0.085093416 0.5407244 1.478071 0.3651566 0.46345934 0.7726113 1.044827
0.31480104 0.24886857 1.325664 1.3091294 0.483224 0.015514255 0.4883972 0.011079427
-0.16470946 0.2372336 0.15200968 -0.04387022 0.37743074 0.9407688 0.99741256 -0.6742398
00000000: 6be4 bc3f 7772 f6bd 059e 6d3f 4c44 a9bf
00000010: 51b7 173f 7b0a 61bf edb9 36bf 524d 97be
00000020: 9bd7 533f c6b9 2e3f be87 e9bd 71ae 0f3e
00000030: ac9b b53f 1241 553f 744b a13f 5abc a3be
00000040: 243f 483f bce2 3c3f 7512 b6be 6880 cdbd
00000050: 097a ae3e cc52 fc3d fff9 873e 1382 46bf
00000060: fa40 823b 8cce edbe cae0 e73e 270c 5cbf
00000070: 19a8 a33f b194 4ebf 42de 363f 2f7a ad3f
00000080: 9953 9cbe ad62 5b3f 6a36 1bbf d1bb 9cbf
00000090: 340b 693f c186 453f 9548 993f 8e6f fd3f
000000a0: 4246 573f 8538 38bd 379a 8abe 6eb8 153e
000000b0: f68d 3c3f 85c6 53bf 8893 3d3f 74f7 d1be
000000c0: f674 4b3f d16d 083f 9a00 5b3f 1ab4 95be
000000d0: 1e88 e23e ee17 9a3e 5b45 0f3e 8953 3abf
000000e0: ce73 e43e abd6 7e3e 8868 df3e 1117 b6bf
000000f0: b40e 8a3d 0505 103f 9ff3 2e3f bb2d ddbe
00000100: d3f6 5abf 3ebd 16bf f3f0 78bf 1e9e 463f
00000110: 55c8 e2bf 8c02 42bf 4a54 d7bd 28f2 15bf
00000120: 30c8 91bf 4e6e 8abf 86e5 a3bf ce1c e6be
00000130: c835 16bf 8990 f9be 50c3 1ebf 0f32 733e
00000140: 7dac 7ebf cd66 bbbf 19e5 02bf 277f bdbf
00000150: 1dca 51bf 8502 08bf df8a 98be 1ef8 1f3d
00000160: 7e32 30bf 12b8 9dbe ab63 21bf 0798 c83e
00000170: 3d18 86bc e7af 9bbf 3666 a1bf f7d2 adbf
00000180: 01ec 81bf 0fd3 b6bf 4f3b a13e f100 70bf
00000190: 79b4 1cbf 1e44 23bf 8e94 313c ab97 27bf
000001a0: 5075 22bf 2e47 31bf 0faa babf 01de babf
000001b0: 705e 44be b9ce 18bf 667e 65bf 6cfb f23d
000001c0: ba35 20bf 215d 2dbf 60d6 82bf a666 79be
000001d0: 1ec8 a0bf 5239 6bbf 87c0 7bbf 340c 55bf
000001e0: fe04 76bf 5b14 093e 4461 9bbf a685 983e
000001f0: b767 41bf f311 d7be 2a4c 80be 2d43 2ebe
00000200: b0cf 7ebd 0ca0 4abf 5a56 d93e a8fd 813f
00000210: 9cc8 2dbe 94c3 03bf a1ce f63e c465 1dbf
00000220: f057 543e 5339 68bf 50db 29bf 1ec0 7fbe
00000230: e0c8 dc3f 8147 253f 9cd9 43bf d8b2 103f
00000240: fe02 4b3f a727 3dbf 8553 1dbf c209 78be
00000250: 5e18 623f c786 563f 0eae 6cbf 21e9 2c3c
00000260: 6109 673b 67e1 c13d 417f 51bf 9ec4 c43f
00000270: ab0d eb3f 3ba3 d63d 4ccc 9cbe 45ff bc3e
00000280: b0ef 29be 6971 9dbe b2dd 663f df9e e1bd
00000290: 498f d3be 778e a73f 0e55 3abf 5924 95be
000002a0: 00e5 e43e 6662 a23f d40a 223f 1a11 983e
000002b0: be49 bebf 31da 3cbf 900c 77bf ba5e ac3f
000002c0: 3f9d 0b3f fe23 9f3f 6cbd 44be 0908 b3bf
000002d0: 56ac 83be d49a cbbf 72e8 70bf 33f9 7dbf
000002e0: d8b7 1ebf fe73 6fbf f69c 7e3d 8ed4 8e3f
000002f0: ea2e 433f ca80 263f 774e 73bf bae6 98bf
00000300: 220a 553f 020c 933f 47de ce3f 89a7 c5be
00000310: d704 853f 5be1 3cbf 527a 933e 36c1 2dbf
00000320: f0f8 063f c31e a83e 0d22 ad3e 1190 d33e
00000330: bebf 443f 0fc1 8c3f e771 ef3e dd4e 343f
00000340: 6fc3 983f 3933 823e 2b51 d7be 08a9 283f
00000350: 78ba 6d3f e05c 733c cba2 2e3f c478 07be
00000360: 7e83 473e 2566 8ebe f55a 5b3f 6c32 2cbf
00000370: 9b0b c63f 2ef9 973d c8cd ddbd 3d7b 253f
00000380: 5968 30bd 217c 193e c55b 88bd d468 3ebd
00000390: 607b ad3e aafe 173f 0c06 f33e d1f2 a63f
000003a0: 0e64 32bf 7545 ae3d ea6c 0a3f 6e31 bd3f
000003b0: cef5 ba3e 8b4a ed3e dbc9 453f e4bc 853f
000003c0: 9a2d a13e 67d7 7e3e 5caf a93f 8d91 a73f
000003d0: 2369 f73e 802f 7e3c 330f fa3e 7c86 353c
000003e0: 99a9 28be 5ded 723e 6da8 1b3e 43b1 33bd
000003f0: 9a3e c13e 39d6 703f 6e56 7f3f fb9a 2cbf

rnn.bias_hh_l0 f4 [256]
1.5244948 0.079199485 0.7860221 -1.2403688 0.5205562 -0.79093677 -0.6906534 -0.5055448
0.9651138 0.7539872 -0.0048777587 0.2333255 1.2649565 0.9357128 1.2052836 -0.40848565
0.71314156 0.6823429 -0.29285732 -0.15924229 0.20008977 0.14626913 0.2982853 -0.6225869
0.13198791 -0.24131796 0.4814666 -0.7730467 1.1945757 -0.8951561 0.8847405 1.4457694
-0.24962583 0.83942145 -0.51990473 -1.2036883 0.8629006 0.7699099 1.2601525 1.9426181
0.7959858 -0.09389812 -0.13062021 0.21303986 0.89350903 -0.9215297 0.8490777 -0.3894713
0.7368678 0.48734412 0.8224523 -0.13747783 0.3203534 0.3263377 0.13311367 -0.8692829
0.43802273 0.28588653 0.50417507 -1.3708462 0.14793307 0.49716982 0.73996633 -0.43907514
-0.7835899 -0.5750122 -1.0572464 0.9383632 -1.6279479 -0.83410954 -0.31764495 -0.69826424
-1.2878821 -1.1338358 -1.3628907 -0.4990339 -0.4230787 -0.62190545 -0.61943126 0.23413585
-1.1525697 -1.4610316 -0.6397496 -1.5462857 -1.0054567 -0.6806501 -0.34646186 -0.09061439
-0.72593737 -0.37463725 -0.57568175 0.39244887 -0.118795514 -1.3275162 -1.2320349 -1.3153564
-0.9779676 -1.4173206 0.13156252 -0.919655 -0.77511674 -0.5860051 -0.15591724 -0.60120374
-0.40244198 -0.79005 -1.3620375 -1.4117883 -0.20460254 -0.40786752 -0.8035977 0.1752581
-0.5880023 -0.50889623 -1.2138886 -0.2216072 -1.2062542 -0.94148505 -0.92941636 -0.64213896
-0.90110755 0.13347192 -1.119402 0.40865844 -0.9182641 -0.2965137 -0.3098104 -0.17926164
-0.037975304 -0.8004352 0.5293644 0.89534986 -0.17894444 -0.5055213 0.6421838 -0.45140144
0.20656444 -0.8336007 -0.6732892 -0.2526085 1.6649978 0.8273178 -0.7222885 0.55836475
0.9225724 -0.7404874 -0.67945164 -0.2617361 0.8307378 0.90146416 -0.9668251 0.0327765
-0.014610526 0.31426314 -0.792002 1.4919522 1.9107605 0.04993911 -0.4348091 0.54497546
-0.084999904 -0.45106634 0.7956046 -0.2877909 -0.42323366 1.4320248 -0.600806 -0.20055988
0.6024952 1.2955453 0.6607605 0.42499506 -1.36414 -0.9416891 -0.9735829 1.3512185
0.4634952 1.0162957 -0.079434104 -1.2466406 -0.28411305 -1.5855043 -1.0230604 -0.95905584
-0.74250066 -1.034496 0.0126949195 0.99929625 0.69992125 0.5706074 -0.9448727 -1.3439145
0.9281678 1.0552702 1.5335184 -0.5422422 0.9923095 -0.6301823 0.14805229 -0.57665163
0.5321293 0.3337659 0.17529269 0.33500525 0.79099536 1.0809177 0.45360032 0.6603084
1.097864 0.28915843 -0.27389488 0.5916419 0.88125455 0.0305719 0.69502026 -0.13416922
0.20891955 -0.3599215 0.85176045 -0.5109985 1.7181388 0.042365834 0.028940458 0.44856074
-0.036769796 0.035470013 0.09133006 0.0006674687 0.4635755 0.5737444 0.5108812 1.2261182
-0.59789526 0.1261243 0.48609173 1.3754802 0.3290617 0.68228257 0.9359501 0.969159
0.4040631 0.2861802 1.3576288 1.1591963 0.46734396 0.14605065 0.5316088 0.23329633
-0.23155619 0.25184768 0.13118614 0.02881755 0.41934657 0.9792258 0.9661344 -0.7176196
00000000: a522 c33f 5733 a23d bf38 493f 68c4 9ebf
00000010: 2c43 053f d57a 4abf a9ce 30bf 626b 01bf
00000020: b311 773f 4e05 413f 9bd5 9fbb e1ec 6e3e
00000030: 18ea a13f e08a 6f3f bc46 9a3f 0825 d1be
00000040: 7290 363f 06ae 2e3f 65f1 95be 6910 23be
00000050: 55e4 4c3e 93c7 153e dab8 983e db61 1fbf
00000060: d727 073e 0e1c 77be ca82 f63e 63e6 45bf
00000070: dbe7 983f f328 65bf 5a7e 623f f90e b93f
00000080: ea9d 7fbe 53e4 563f 7a18 05bf 7512 9abf
00000090: 0ee7 5c3f d118 453f ad4c a13f b6a7 f83f
000000a0: bac5 4b3f a84d c0bd 4ec1 05be 1f27 5a3e
000000b0: 02bd 643f 5fe9 6bbf 285d 593f c868 c7be
000000c0: 5ea3 3c3f 2b85 f93e 3c8c 523f fdc6 0cbe
000000d0: 5c05 a43e bc15 a73e f34e 083e 5389 5ebf
000000e0: 8444 e03e b85f 923e 9e11 013f e377 afbf
000000f0: c47b 173e 0b8d fe3e 6f6e 3d3f 75ce e0be
00000100: 5999 48bf 0034 13bf da53 87bf 9238 703f
00000110: 9960 d0bf 3488 55bf 5ca2 a2be 72c1 32bf
00000120: 52d9 a4bf 8821 91bf 3473 aebf 5f81 ffbe
00000130: c59d d8be 3235 1fbf 0c93 1ebf 4fc1 6f3e
00000140: 6787 93bf 1503 bbbf a1c6 23bf b1ec c5bf
00000150: ceb2 80bf 163f 2ebf 7363 b1be 0a94 b9bd
00000160: 08d7 39bf 74d0 bfbe e15f 13bf 0fef c83e
00000170: 104b f3bd 0dec a9bf 52b3 9dbf 995d a8bf
00000180: 165c 7abf c36a b5bf 53b8 063e 836e 6bbf
00000190: 0d6e 46bf 6e04 16bf c5a8 1fbe 7de8 19bf
000001a0: e00c cebe b840 4abf 3f57 aebf 7bb5 b4bf
000001b0: 5483 51be 03d4 d0be 94b8 4dbf dc76 333e
000001c0: 5287 16bf 0647 02bf b460 9bbf ffec 62be
000001d0: 8a66 9abf 2a05 71bf 3bee 6dbf 3863 24bf
000001e0: fcae 66bf ddac 083e 9148 8fbf ae3b d13e
000001f0: 5b13 6bbf a5d0 97be 789f 9ebe 5d90 37be
00000200: fe8b 1bbd 52e9 4cbf 6d84 073f a635 653f
00000210: 363d 37be d869 01bf 2866 243f 171e e7be
00000220: a185 533e db66 55bf ae5c 2cbf e755 81be
00000230: a61e d53f 19cb 533f e6e7 38bf fef0 0e3f
00000240: b42d 6c3f 9590 3dbf 8bf0 2dbf 4602 86be
00000250: 3cab 543f 5bc6 663f da81 77bf a740 063d
00000260: fd60 6fbc 19e7 a03e a5c0 4abf 4af8 be3f
00000270: cd93 f43f f48c 4c3d 4c9f debe 8383 0b3f
00000280: 6e14 aebd 2bf2 e6be beac 4b3f 5459 93be
00000290: 15b2 d8be 974c b73f 6cce 19bf 925f 4dbe
000002a0: 203d 1a3f 6ed4 a53f 9a27 293f f498 d93e
000002b0: 249c aebf 8912 71bf bb3c 79bf baf4 ac3f
000002c0: 3e4f ed3e fa15 823f 59ae a2bd eb91 9fbf
000002d0: 4477 91be cef1 cabf a5f3 82bf af84 75bf
000002e0: 8614 3ebf 5d6a 84bf 5afe 4f3c e1d1 7f3f
000002f0: 0a2e 333f 5413 123f 2de3 71bf 6405 acbf
00000300: 689c 6d3f 1813 873f 554a c43f 63d0 0abf
00000310: ff07 7e3f a153 21bf 059b 173e 719f 13bf
00000320: a039 083f 5de3 aa3e ed7f 333e cf85 ab3e
00000330: ac7e 4a3f 835b 8a3f 4d3e e83e f909 293f
00000340: cf86 8c3f 930c 943e f33b 8cbe d875 173f
00000350: e699 613f ec71 fa3c d9ec 313f a863 09be
00000360: 02ef 553e a147 b8be f90c 5a3f ccd0 02bf
00000370: f9eb db3f cc87 2d3d 8a14 ed3c c1a9 e53e
00000380: ed9b 16bd 0149 113d 410b bb3d 11f9 2e3a
00000390: c559 ed3e eae0 123f 1cc9 023f 71f1 9c3f
000003a0: aa0f 19bf ba26 013e 04e1 f83e bc0f b03f
000003b0: c67a a83e 12aa 2e3f 6d9a 6f3f ce1a 783f
000003c0: 5ce1 ce3e 3686 923e c8c6 ad3f 8b60 943f
000003d0: b547 ef3e 4d8e 153e 8417 083f 3ce5 6e3e
000003e0: 111d 6dbe 2ef2 803e a955 063e c812 ec3c
000003f0: 98b4 d63e 8bae 7a3f 9654 773f ebb5 37bf

rnn.weight_ih_l1 f4 [256, 64]
-0.48016357 -0.34611255 0.5633514 0.7509898 1.4418672 0.3759859 -0.76309144 0.76021546
0.79478616 0.094050236 0.27884674 -0.24126498 0.05800272 0.037136037 -0.38874054 0.80250984
0.4208978 -0.6532213 0.39886296 1.1914029 0.45091093 0.040083133 -0.25147504 0.14459379
-0.14967693 0.028665263 -1.1000717 0.7731182 -0.17905532 0.6037298 -0.17113912 -1.1074673
-0.08670694 -0.116570406 -0.6918998 -0.83723533 0.082505375 0.8368082 -0.54671675 -0.6229602
-0.48150688 -0.32392842 -0.07488142 -0.3935783 -0.096214324 0.6826189 0.19272746 -0.20976274
0.19399399 0.6201972 0.85413975 1.0231676 0.7533718 0.51532 1.2054493 -0.03842144
-0.90690845 0.79372776 0.7202747 0.17340955 -0.32997143 0.2389436 0.29502288 -1.0556605
0.71892107 0.1520773 0.08409095 0.7197789 0.0056653204 -2.1971333 -0.17393708 -1.5442288
1.235213 -1.3125601 -1.711258 -0.5046514 -1.6085628 0.22349074 0.44070914 0.37677437
0.5687615 -0.40059483 -1.0117137 1.4680321 0.9483425 1.6433251 0.27762583 -0.7166721
-0.43812189 0.9565768 0.4133577 0.56773037 -0.1206103 0.4883257 1.1587261 -0.38884115
0.09167171 2.3557518 0.44751585 -1.5356756 -0.695424 0.08435508 -0.020154608 -0.50121427
-0.32403103 -1.2189103 0.440415 0.7269562 0.25009882 -1.1989567 0.43549788 0.35245723
0.09945958 0.9098236 0.11448509 0.4989127 -0.34228376 -0.94512606 -0.7323625 -0.5168119
-1.2663163 -0.99670523 0.22264236 1.1197151 0.7947993 0.5938965 -0.16406207 0.5422093
0.23768757 0.37315968 -0.34373254 1.1696739 -0.6192094 -0.036308754 -0.3504699 -0.39505422
-0.3132868 0.52776253 -0.7610495 0.29182917 0.34969822 -0.42599696 -0.0015946785 -0.52866393
-0.2447057 -0.21131983 -0.4041574 -0.15438537 -0.20530559 0.04821034 -0.20160456 0.08944926
-0.45204854 -0.64780813 -0.7643386 0.69577366 -0.7203578 -0.014312828 -0.14054736 0.06678525
0.64866716 0.61496377 0.20667054 -1.9069952 0.16979203 -0.083285086 -0.030104408 0.032321937
-0.12578908 0.40049177 -0.73115516 -0.20985344 -0.004467019 0.30074874 0.58435947 0.4459203
-0.4317256 -0.29400286 -0.048697323 0.035075493 0.18379009 -0.7247511 -0.67476463 0.01702767
-1.2041545 0.095215626 -0.28701493 -0.0679441 0.2064925 0.428731 0.23419781 0.50710404
0.86080664 -0.20625547 -0.1364281 0.11171709 -0.77766144 -1.8940301 1.1168051 0.9129335
-0.41371208 -0.18876565 -0.25082362 0.4503519 0.5336429 0.58120805 -0.102457605 -0.4696546
-0.2732123 -1.1940184 -0.39822096 -0.67880535 -0.5179853 -0.04883184 -1.081406 0.1414192
-0.6344048 1.2883795 -0.82332015 0.62305176 -2.224794 -0.24608827 -0.7738535 -1.7311445
0.07716628 0.47538885 -0.3362957 -0.3735885 1.0062383 -0.9836065 0.23648413 -0.1614947
0.805878 -0.5113558 -0.4020504 0.41107205 -1.317391 0.5964376 0.33020836 0.04422386
0.42437539 -0.043613493 0.58927596 0.5732241 0.7585123 0.29121506 0.15625434 -0.5777307
0.5399643 -0.16725352 0.5604643 -0.17293446 0.666887 -0.6995928 0.5227625 0.14603458
00000000: 00d8 f5be aa35 b1be cc37 103f de40 403f
00000010: 1b8f b83f 3981 c03e f659 43bf 7b9d 423f
00000020: 1b77 4b3f 699d c03d 00c5 8e3e 2b0e 77be
00000030: 4394 6d3d f51b 183d 0009 c7be 4971 4d3f
00000040: eb7f d73e 8339 27bf c437 cc3e e47f 983f
00000050: ccdd e63e 362e 243d 56c1 80be 6510 143e
00000060: e944 19be 6ad3 ea3c 26cf 8cbf 13eb 453f
00000070: 475a 37be 098e 1a3f 183f 2fbe 7dc1 8dbf
00000080: 6893 b1bd 77bc eebd 5820 31bf 0e55 56bf
00000090: 94f8 a83d 1039 563f a1f5 0bbf 527a 1fbf
000000a0: 1288 f6be f2d9 a5be 6e5b 99bd 1883 c9be
000000b0: 040c c5bd 1dc0 2e3f 595a 453e 0bcc 56be
000000c0: 5ca6 463e 3ec5 1e3f e7a8 5a3f 28f7 823f
000000d0: f9dc 403f 03ec 033f 2a4c 9a3f cd5f 1dbd
000000e0: 272b 68bf be31 4b3f ec63 383f 4692 313e
000000f0: 04f2 a8be a2ad 743e 3d0d 973e e21f 87bf
00000100: 360b 383f 27ba 1b3e e037 ac3d 6e43 383f
00000110: 27a4 b93b d59d 0cc0 901c 32be 4aa9 c5bf
00000120: 761b 9e3f f801 a8bf 810a dbbf d630 01bf
00000130: 63e5 cdbf c2da 643e a1a4 e13e 92e8 c03e
00000140: 5b9a 113f c41a cdbe d67f 81bf 7ae8 bb3f
00000150: 93c6 723f 7a58 d23f f924 8e3e d377 37bf
00000160: 8351 e0be 38e2 743f 9fa3 d33e c756 113f
00000170: 8802 f7bd d305 fa3e 2351 943f 3016 c7be
00000180: 61be bb3d a3c4 1640 cc20 e53e 0591 c4bf
00000190: 4f07 32bf 5bc2 ac3d 471b a5bc 944f 00bf
000001a0: 65e7 a5be 4105 9cbf 137e e13e cd19 3a3f
000001b0: f40c 803e 6a77 99bf 94f9 de3e 4675 b43e
000001c0: 77b1 cb3d 33ea 683f 2977 ea3d 7c71 ff3e
000001d0: d13f afbe c8f3 71bf 1c7c 3bbf c94d 04bf
000001e0: a716 a2bf 1328 7fbf 5cfc 633e d352 8f3f
000001f0: f877 4b3f 9a09 183f e3ff 27be 3bce 0a3f
00000200: 5f64 733e c90e bf3e b6fd afbe e0b7 953f
00000210: 8284 1ebf 7db8 14bd ca70 b3be 8c44 cabe
00000220: 2167 a0be 721b 073f 24d4 42bf a26a 953e
00000230: a50b b33e 461c dabe 8804 d1ba 8556 07bf
00000240: 2294 7abe 3a64 58be b8ed cebe 3317 1ebe
00000250: a13b 52be 3578 453d 6d71 4ebe 2c31 b73d
00000260: e872 e7be c1d6 25bf b2ab 43bf 391e 323f
00000270: 5e69 38bf 5a80 6abc a6eb 0fbe b5c6 883d
00000280: 0d0f 263f 446e 1d3f 71a1 533e 6b18 f4bf
00000290: f6dd 2d3e 5f91 aabd 859d f6bc 0264 043d
000002a0: dace 00be 420d cd3e fc2c 3bbf d2e3 56be
000002b0: 1260 92bb bdfb 993e 9598 153f aa4f e43e
000002c0: 230b ddbe 8b87 96be d876 47bd 52ab 0f3d
000002d0: 7833 3c3e 4a89 39bf 60bd 2cbf 9d7d 8b3c
000002e0: bc21 9abf 6900 c33d 9ff3 92be 4726 8bbd
000002f0: c572 533e a182 db3e 8dd1 6f3e 92d1 013f
00000300: d35d 5c3f a234 53be cfb3 0bbe eecb e43d
00000310: d214 47bf 946f f2bf 78f3 8e3f 03b6 693f
00000320: 12d2 d3be c84b 41be f46b 80be 8694 e63e
00000330: d29c 083f 0dca 143f 4bd5 d1bd 9176 f0be
00000340: 7ce2 8bbe 98d5 98bf 9ee3 cbbe 30c6 2dbf
00000350: af9a 04bf e503 48bd 836b 8abf 32d0 103e
00000360: 5a68 22bf 9fe9 a43f 1cc5 52bf 5280 1f3f
00000370: 0663 0ec0 90fe 7bbe 431b 46bf 2596 ddbf
00000380: 5b09 9e3d 2b66 f33e f32e acbe fe46 bfbe
00000390: 6bcc 803f a3cd 7bbf e528 723e de5e 25be
000003a0: 054e 4e3f 37e8 02bf 8dd9 cdbe 0978 d23e
000003b0: 45a0 a8bf 22b0 183f 1211 a93e 1424 353d
000003c0: bb47 d93e 10a4 32bd cada 163f d1be 123f
000003d0: dd2d 423f 241a 953e 2301 203e 29e6 13bf
000003e0: 1a3b 0a3f 8244 2bbe 977a 0f3f bb15 31be
000003f0: 1bb9 2a3f 8418 33bf c3d3 053f 178a 153e

rnn.weight_hh_l1 f4 [256, 64]
-0.8753195 0.6699837 0.18363489 0.5914672 0.3712973 0.31931993 0.19476949 0.024748653
-0.2781319 0.19475882 -0.62154555 -0.35770714 0.16223897 -0.12349733 0.3257694 -0.2896263
0.22069436 0.15732765 -0.20577678 -0.53653127 0.25237375 -0.2838228 0.2336849 -0.08726541
0.09955718 0.37643895 0.6393456 -0.25126082 0.057170432 0.07223467 0.25618404 -0.030716062
-0.031084124 -0.06419962 0.32997063 -0.58784235 0.08101632 -0.004980191 0.11055213 -0.37038913
0.22523533 -0.57057697 -0.662136 0.55906963 0.063745156 -0.38464823 0.2821836 -0.2723189
-0.5406626 -0.34305897 -0.27621973 0.12241669 -0.036468543 -0.36934003 -0.27742225 0.27200902
0.41051716 -0.008893222 -0.35690472 -0.018109586 0.30661055 0.14762978 0.4681748 0.079790086
-0.34139827 0.19704443 0.1267093 -0.8510602 -0.012996156 0.223023 -0.06896832 -0.42227215
-0.30044943 0.18091671 0.46353665 0.15358673 -0.16539389 -0.52788925 -0.3483759 0.024267353
-0.17553847 0.10968492 -0.58637816 0.21069996 -0.09611257 0.2654121 0.48147923 0.24008986
0.04746949 0.61196667 0.30737546 -0.681642 -0.3702391 0.27957252 -0.8793245 -0.26284012
-0.107261494 -0.4799759 0.3624406 -0.45537934 -0.057534344 0.71790534 0.015277455 0.49384108
0.38000786 0.028899822 0.87514883 -0.42648587 -0.62169385 -0.37486538 0.7310924 -0.6262855
0.3408542 -0.48971176 0.3853153 -0.32534522 -0.55860245 -0.031029278 -0.6712697 0.23632935
0.33731648 0.5983206 -0.74683255 0.1733628 -0.30934265 -0.03747074 0.11564887 -0.10919777
0.059817202 -0.15202571 0.17625524 -0.037871093 0.0010882651 -0.3426583 0.60755146 0.09628824
-0.23178709 -0.049867522 -0.6061277 -0.37701264 0.047083378 -0.28913507 -0.11933859 0.027261019
0.19606881 0.31212738 -0.21662232 -0.22871488 -0.442138 0.19667092 -0.14000338 0.16979821
0.07667316 -0.35081 -0.143441 -0.33063874 0.1895552 -0.38631585 -0.14812262 0.0069044614
-0.87776744 0.20029728 -0.4063703 0.26317772 -0.07834819 -0.24178703 -0.48060998 -0.3241604
0.16828515 -0.021798672 -0.032176387 0.3918961 -0.054327622 0.2579446 0.050797787 -0.49366
-0.07009472 -0.15637751 -0.015499228 -0.16628005 -0.30558643 0.28350347 0.0015777752 0.06627452
0.44444755 0.22476496 0.26926953 0.33592167 -0.07792379 0.28645375 0.21574588 -0.28373778
-0.18060215 0.38325015 -0.13039318 -0.019735841 0.3673861 -0.7060233 -0.22621322 0.118847124
-0.42447758 -0.5585057 0.15362687 0.10187634 -0.3044132 -0.9842698 0.15244298 -0.103591815
0.5117504 0.08655233 -0.51527506 -0.43615213 0.0052284184 0.0014472305 0.22670786 -0.24602363
-0.10814027 -0.15469351 -0.6890494 -0.21210566 -0.19225314 -0.36056915 -0.06381946 -0.055891328
0.07836575 0.22447468 -0.024270145 -0.15547107 0.12337937 0.31647074 0.20493492 0.25249457
-0.2160598 -0.6612016 0.9600831 -0.3242555 0.5598828 0.5488575 0.67919314 -0.58433884
-0.7266624 -0.024548622 0.1738723 -0.1734788 0.48488694 -0.46324193 -0.2852174 0.7312079
0.015259988 0.0050111 0.08884247 -0.37630263 -0.21140957 0.04551714 1.0392133 -0.1135637
00000000: f014 60bf 0d84 2b3f c90a 3c3e 656a 173f
00000010: ae1a be3e e77d a33e a771 473e b0bd ca3c
00000020: 4e67 8ebe db6e 473e 9c1d 1fbf 6425 b7be
00000030: f921 263e 2bec fcbd 3fcb a63e e649 94be
00000040: b4fd 613e 801a 213e 26b7 52be 1d5a 09bf
00000050: 2237 813e 3951 91be 184b 6f3e 35b8 b2bd
00000060: a3e4 cb3d 9bbc c03e 27ac 233f 42a5 80be
00000070: 8b2b 6a3d c5ef 933d 8e2a 833e 40a0 fbbc
00000080: 22a4 febc 177b 83bd e9f1 a83e d67c 16bf
00000090: e2eb a53d df30 a3bb 2869 e23d a5a3 bdbe
000000a0: 17a4 663e 5511 12bf bf81 29bf 301f 0f3f
000000b0: d28c 823d 9df0 c4be 5e7a 903e 626d 8bbe
000000c0: dd68 0abf 6da5 afbe ac6c 8dbe 9ab5 fa3d
000000d0: 0a60 15bd 231a bdbe 4a0a 8ebe c444 8b3e
000000e0: 4e2f d23e e0b4 11bc 37bc b6be 8e5a 94bc
000000f0: 0ffc 9c3e 432c 173e 9bb4 ef3e fc68 a33d
00000100: c1cb aebe 04c6 493e 15c0 013e 15df 59bf
00000110: d4ed 54bc 2460 643e 433f 8dbd 0e34 d8be
00000120: 82d4 99be 3b42 393e ad54 ed3e d745 1d3e
00000130: 045d 29be c023 07bf 535e b2be 54cc c63c
00000140: 5bc0 33be 7da2 e03d e11c 16bf bbc1 573e
00000150: abd6 c4bd 18e4 873e 7284 f63e 1eda 753e
00000160: 5e6f 423d d9a9 1c3f 5160 9d3e 1780 2ebf
00000170: fb8f bdbe 2124 8f3e 691b 61bf fb92 86be
00000180: eaab dbbd 67bf f5be d091 b93e 7b27 e9be
00000190: 22a9 6bbd a5c8 373f 4a4e 7a3c bdd8 fc3e
000001a0: 6490 c23e 52bf ec3c c109 603f 5b5c dabe
000001b0: 5427 1fbf 5bee bfbe df28 3b3f 3f54 20bf
000001c0: 7184 ae3e 80bb fabe 0c48 c53e a693 a6be
000001d0: 9200 0fbf 1d31 febc 55d8 2bbf 5200 723e
000001e0: bfb4 ac3e 8a2b 193f 6b30 3fbf 0586 313e
000001f0: 2962 9ebe eb7a 19bd 51d9 ec3d 15a3 dfbd
00000200: e202 753d a1ac 1bbe 417c 343e b81e 1bbd
00000210: 1ea4 8e3a e970 afbe 7e88 1b3f c532 c53d
00000220: 9859 6dbe e341 4cbd 2f2b 1bbf cd07 c1be
00000230: 80da 403d 8309 94be ca67 f4bd 8052 df3c
00000240: 43c6 483e 29cf 9f3e 3ed2 5dbe 3c34 6abe
00000250: e95f e2be 1a64 493e 0c5d 0fbe 95df 2d3e
00000260: d106 9d3d 5e9d b3be 33e2 12be 7b49 a9be
00000270: c21a 423e 31cb c5be 75ad 17be d23e e23b
00000280: 5eb5 60bf bb1a 4d3e c50f d0be 3bbf 863e
00000290: 0475 a0bd 0597 77be 8312 f6be 5af8 a5be
000002a0: f152 2c3e 2193 b2bc 63cb 03bd 9ba6 c83e
000002b0: a486 5ebd 5111 843e 5711 503d 01c1 fcbe
000002c0: d28d 8fbd 6d21 20be 79f0 7dbc 5145 2abe
000002d0: d375 9cbe 5e27 913e 5acd ce3a efba 873d
000002e0: a18e e33e c928 663e b2dd 893e edfd ab3e
000002f0: 8296 9fbd 11aa 923e 7dec 5c3e 1446 91be
00000300: c5ef 38be 5d39 c43e ca85 05be 0fad a1bc
00000310: 081a bc3e f1bd 34bf 70a4 67be 1f66 f33d
00000320: 2055 d9be 3bfa 0ebf 5d50 1d3e 8ba4 d03d
00000330: 0cdc 9bbe 1bf9 7bbf 031a 1c3e f227 d4bd
00000340: 1302 033f 5942 b13d 11e9 03bf 554f dfbe
00000350: 2753 ab3b ffb0 bd3a 1b26 683e 9eed 7bbe
00000360: a578 ddbd fa67 1ebe 8b65 30bf 3a32 59be
00000370: 02de 44be 859c b8be c7b3 82bd 4eee 64bd
00000380: 397e a03d b1dc 653e 2fd2 c6bc cf33 1fbe
00000390: 53ae fc3d 7408 a23e 76da 513e f846 813e
000003a0: c83e 5dbe 8244 29bf 02c8 753f d104 a6be
000003b0: 7b54 0f3f ed81 0c3f 9adf 2d3f 3b97 15bf
000003c0: 8c06 3abf 311a c9bc 950b 323e 6da4 31be
000003d0: 1a43 f83e 0c2e edbe 0408 92be 7130 3b3f
000003e0: 0705 7a3c 2734 a43b 0af3 b53d bdaa c0be
000003f0: c07b 58be 2e70 3a3d f104 853f 1694 e8bd

rnn.bias_ih_l1 f4 [256]
0.50725085 0.46925512 -0.019520838 0.044026986 0.36467433 0.35143098 1.4562147 0.8661423
1.1659954 0.21407104 -0.4783787 0.8797335 0.04063722 -0.050051883 -0.18988784 0.042202555
0.3838481 0.26848266 0.1711703 0.72189623 0.49092472 0.75350803 0.5625369 0.35596296
0.19664492 0.20747842 0.51754034 0.088529244 -0.0060857995 0.7830152 -0.057520818 -0.35012162
-0.14015211 0.11535401 0.31083748 0.18345276 0.32582793 0.7186515 0.5818277 0.667534
0.28867415 0.0689836 0.2811908 0.6596201 1.1899407 0.75617975 0.3468915 0.4648696
0.26835164 -0.02291347 0.08824994 0.67414373 0.7434026 0.60004145 -0.4998257 0.6614021
0.83702993 0.36162803 0.64506465 -0.020576948 -0.25213316 -0.19599901 -0.5108696 0.2395053
-0.22043917 -0.5950794 0.13770321 0.059748624 -0.13161975 -0.6462755 -1.0333807 0.088704
-1.023209 -0.15765421 0.43887702 -0.6964653 -0.4702978 0.010030427 0.13792714 -0.32939133
0.36879978 -0.36561403 -0.31586477 -0.3339945 -0.17743807 -0.6317878 -0.51267725 -0.47343403
-0.48345092 0.009143499 -0.6146736 -0.4561068 0.049266234 -0.4982147 0.4829964 0.3785868
-0.12640032 0.3776745 -0.18634214 -0.6327107 0.20004232 -0.83007574 -0.52105457 -0.45355958
-0.29538885 -0.27424467 -1.2492882 0.014523812 -0.75114787 -0.4564141 -1.0933336 -0.8025183
-0.3283154 -0.3123378 0.18214174 -0.05279003 -0.52281785 -0.4898755 -0.40826654 -0.59087795
-0.50461715 -0.4414397 -0.63750684 -0.2193274 -0.5150515 0.4776021 -0.17141241 -0.4861955
-0.155591 -0.22590375 0.23145549 0.13965458 -0.2545757 0.31157863 -0.02415292 0.036353506
-0.028009491 0.008800449 -0.013540789 0.0635213 -0.2524652 -0.05265757 0.09519279 0.011705266
0.070334725 -0.18739659 0.11087038 0.090789385 -0.12872988 0.35301065 0.1248221 -0.29694772
0.044676982 0.3915939 0.1838872 0.0130059365 0.24686413 -0.14458935 -0.21023592 0.06957094
-0.008416027 -0.034770615 -0.23370236 -0.3791678 0.025296705 -0.14231786 -0.20229323 0.12961422
0.14864285 0.114988156 0.19140574 0.24712303 0.40465987 0.20882222 0.3695749 -0.3486887
-0.18029599 -0.16210878 -0.1611904 0.04567831 -0.13241997 -0.07539201 -0.05166852 0.21951969
-0.09816304 0.19242112 -0.44852003 0.31278768 -0.31224254 -0.23880175 -0.18840426 0.29510713
0.5936367 0.61414057 1.309261 0.38235483 0.8436349 1.2387518 1.2204281 1.0606986
1.0413579 1.039013 0.6348849 0.78169864 0.91536367 0.7031332 1.2153196 0.978155
0.37421757 0.21184687 0.88228583 1.0491601 1.3767188 0.6033318 0.56707025 0.8581218
0.8796302 0.72181123 0.85429806 1.0884508 0.78753537 0.4851797 0.979073 0.6744618
0.9792306 0.693356 0.6694165 -0.06149939 0.9116166 0.93696326 0.75125825 1.0233339
1.029031 0.5675674 0.88059753 1.4406502 1.287867 1.5347822 0.19493473 0.933894
0.39538193 0.49724922 0.12441367 1.2111204 0.7276577 0.58790004 0.5521578 0.61555994
1.272578 1.1652753 0.9871041 0.19543181 0.22764336 1.0518855 0.34760952 0.6522083
00000000: 31db 013f 3542 f03e 2aea 9fbc a455 343d
00000010: 98b6 ba3e c3ee b33e 3e65 ba3f 80bb 5d3f
00000020: 563f 953f 7035 5b3e 0eee f4be 3736 613f
00000030: 3773 263d 3403 4dbd f571 42be 96dc 2c3d
00000040: bd87 c43e 8f76 893e 4447 2f3e 31ce 383f
00000050: 7c5a fb3e e7e5 403f 6b02 103f c740 b63e
00000060: 495d 493e 3975 543e 867d 043f d24e b53d
00000070: 636b c7bb af73 483f f39a 6bbd 2443 b3be
00000080: 0984 0fbe b93e ec3d 1726 9f3e 0adb 3b3e
00000090: ebd2 a63e 8bf9 373f a9f2 143f 82e3 2a3f
000000a0: 19cd 933e 4647 8d3d 3ef8 8f3e dddc 283f
000000b0: fa4f 983f ff94 413f c39b b13e 6303 ee3e
000000c0: 6365 893e 08b5 bbbc 62bc b43d af94 2c3f
000000d0: a24f 3e3f 519c 193f 27e9 ffbe a651 293f
000000e0: 9847 563f 4f27 b93e f522 253f fd90 a8bc
000000f0: 9917 81be f7b3 48be 5ac8 02bf e140 753e
00000100: ceba 61be 2057 18bf 1202 0d3e f9ba 743d
00000110: 54c7 06be 5072 25bf d245 84bf 71aa b53d
00000120: 83f8 82bf 1b70 21be 7db4 e03e 8d4b 32bf
00000130: e0ca f0be a956 243c c63c 0d3e fba5 a8be
00000140: 53d3 bc3e c331 bbbe 07b9 a1be 5401 abbe
00000150: 53b2 35be d8bc 21bf d13e 03bf f265 f2be
00000160: e186 f7be 9dce 153c 405b 1dbf d586 e9be
00000170: 64cb 493d ff15 ffbe 4e4b f73e 21d6 c13e
00000180: 166f 01be 8d5e c13e 79d0 3ebe 54f9 21bf
00000190: e5d7 4c3e d87f 54bf d563 05bf f638 e8be
000001a0: 353d 97be cc69 8cbe ade8 9fbf 48f5 6d3c
000001b0: 3a4b 40bf 1caf e9be 5bf2 8bbf d771 4dbf
000001c0: f518 a8be bdea 9fbe 5d83 3a3e 5c3a 58bd
000001d0: 64d7 05bf f6d0 fabe 5008 d1be c743 17bf
000001e0: 972e 01bf 6204 e2be a633 23bf 5d97 60be
000001f0: 6ada 03bf 4388 f43e bc86 2fbe 9eee f8be
00000200: 3f53 1fbe 5053 67be ab02 6d3e 9c01 0f3e
00000210: bf57 82be 3c87 9f3e 58dc c5bc 6ae7 143d
00000220: 2974 e5bc c22f 103c 2fda 5dbc 7517 823d
00000230: 1e43 81be 77af 57bd 70f4 c23d 72c7 3f3c
00000240: a70b 903d e4e4 3fbe 0310 e33d c9ef b93d
00000250: c4d1 03be d0bd b43e bba2 ff3d 8809 98be
00000260: 36ff 363d ff7e c83e ed4c 3c3e da16 553c
00000270: f3c9 7c3e 3b0f 14be 1648 57be 367b 8e3d
00000280: 60e3 09bc a26b 0ebd ac4f 6fbe 4822 c2be
00000290: 093b cf3c c6bb 11be f525 4fbe 97b9 043e
000002a0: d535 183e e97e eb3d deff 433e d20d 7d3e
000002b0: 942f cf3e 7ed5 553e ec38 bd3e 5387 b2be
000002c0: 839f 38be d8ff 25be 190f 25be 2e19 3b3d
000002d0: 1a99 07be 2067 9abd 5fa2 53bd c5c9 603e
000002e0: b409 c9bd 0b0a 453e 6ba4 e5be b525 a03e
000002f0: 41de 9fbe 7288 74be 0ced 40be 4818 973e
00000300: 93f8 173f 5138 1d3f dd95 a73f 03c4 c33e
00000310: 75f8 573f 6b8f 9e3f fd36 9c3f f9c4 873f
00000320: 374b 853f 61fe 843f d187 223f 671d 483f
00000330: 4655 6a3f 8a00 343f 988f 9b3f 5e68 7a3f
00000340: 7299 bf3e 63ee 583e 7cdd 613f e14a 863f
00000350: 5238 b03f f473 1a3f 842b 113f dfad 5b3f
00000360: 722f 613f 9fc8 383f 47b3 5a3f 5b52 8b3f
00000370: eb9b 493f 7969 f83e 87a4 7a3f 87a9 2c3f
00000380: dbae 7a3f c77f 313f e15e 2b3f c9e6 7bbd
00000390: b55f 693f d3dc 6f3f 7652 403f 9bfc 823f
000003a0: 4ab7 833f 194c 113f d76e 613f 3a67 b83f
000003b0: d3d8 a43f be73 c43f f89c 473e ad13 6f3f
000003c0: 806f ca3e 7397 fe3e 98cc fe3d fe05 9b3f
000003d0: c647 3a3f 9e80 163f 375a 0d3f 5695 1d3f
000003e0: d6e3 a23f be27 953f dbb2 7c3f 471f 483e
000003f0: 571b 693e 2fa4 863f e0f9 b13e 20f7 263f
