best_cbow.pth (torch, 278626 bytes, 3 tensors)

emb.weight f4 [2097, 16]
0	0x40cadc7f	6.339416
1	0xc0755f0e	-3.8339267
2	0xc01bb73d	-2.433059
3	0xc03822d9	-2.877127
4	0xc0d4eb59	-6.653729
5	0xbd1d8fac	-0.038467094
6	0xbf9d6519	-1.2296478
7	0xc0df2fdc	-6.974592
8	0xbd89e7ea	-0.06733687
9	0x40064a29	2.0982764
10	0xc0d209ec	-6.563711
11	0xc02979e2	-2.6480641
12	0xbfbd4d47	-1.4789208
13	0x3fadcbdd	1.3577839
14	0x3efacd7e	0.48984903
15	0x4004bd1f	2.074043
16	0x40336337	2.8029306
17	0xc0c77f0d	-6.234259
18	0xc01e773c	-2.4760275
19	0xbe7cf1ae	-0.24701568
20	0xc105c6c2	-8.361025
21	0x405a9eb4	3.4159365
22	0x3e14f9ab	0.14548366
23	0xc0bc25ce	-5.879615
24	0x3ffeb6c1	1.9899522
25	0xc024440c	-2.5666533
26	0xc08b5546	-4.3541594
27	0xc070631b	-3.756049
28	0x40747a55	3.8199666
29	0x40b65dde	5.6989584
30	0xbf42de59	-0.76120526
31	0x402e1992	2.7203107
32	0x3f109526	0.5647758
33	0x40afb765	5.491137
34	0x3fbaae38	1.4584417
35	0xc00e76a1	-2.2259905
36	0x3cdba09c	0.026809983
37	0x3f2141d6	0.6299108
38	0xc0735290	-3.8019142
39	0xc0e9706b	-7.294973
40	0x3e8c1981	0.27363208
41	0xc0333215	-2.7999318
42	0x3f97c3e5	1.1856657
43	0xc02c763e	-2.694717
44	0x4058bee2	3.3866506
45	0x3edfce05	0.43711868
46	0xc06244f6	-3.535459
47	0x410b1d0e	8.694593
48	0x4086265a	4.1921816
49	0xc08565f7	-4.168697
50	0xc0ca1e5f	-6.3162074
51	0xc011f8f4	-2.28082
52	0xc101285b	-8.072352
53	0x40463957	3.0972497
54	0xbbc18080	-0.005905211
55	0xc0a73ac2	-5.2259226
56	0x401266a6	2.2875152
57	0x3f55b449	0.8347822
58	0xbfc8c357	-1.5684613
59	0x4052bcde	3.2927775
60	0x3fcde012	1.6084006
61	0x4049a4f0	3.150692
62	0x40105af0	2.2555504
63	0xbe81d2d6	-0.25356168
64	0xc0390517	-2.8909357
65	0xbf8d6e6c	-1.1049323
66	0x40adcf96	5.43159
67	0xc03437e3	-2.815911
68	0xc02596e8	-2.5873356
69	0x3e5e59fd	0.21714015
70	0x40142e1c	2.3153143
71	0x3ffa7908	1.9568186
72	0x3f4c2b24	0.7975333
73	0x407cba21	3.9488604
74	0xc078948d	-3.8840668
75	0xc06b7951	-3.6792796
76	0xbfd69f72	-1.6767409
77	0xbf71ab9b	-0.94402474
78	0xbf63a033	-0.8891632
79	0x4080da7d	4.026671
80	0xbe94c256	-0.29054517
81	0xbe11c33f	-0.14234637
82	0x4055cbb1	3.3405573
83	0xbf694ebc	-0.91135764
84	0xc0291a68	-2.6422367
85	0x3f8f2148	1.1182032
86	0x3f0f4e1f	0.5597858
87	0x3d9d52b6	0.076817915
88	0x3fc18b45	1.5120627
89	0xbfc34030	-1.5253963
90	0x3fdd3e03	1.728455
91	0xbe583deb	-0.2111737
92	0x401bbe37	2.4334848
93	0xc04223b5	-3.0334294
94	0x4016935f	2.3527448
95	0xbf9c53d6	-1.2213085
96	0xbf8644e2	-1.0489771
97	0x3e263ee5	0.1623493
98	0xc060114e	-3.5010562
99	0xbf9add0b	-1.2098707
100	0x40367e1e	2.8514476
101	0x4013e1be	2.3106532
102	0xbf787a7e	-0.9706191
103	0x3f91fa94	1.1404595
104	0x403d4b65	2.9577267
105	0x40a1bfcc	5.0546627
106	0x40317f1f	2.7733839
107	0x3f3647fc	0.7120359
108	0x402362a8	2.5528965
109	0xbf84c9db	-1.0374101
110	0x3d89d58e	0.067301854
111	0x40ae4fed	5.4472566
112	0xbfce9277	-1.6138448
113	0xc0266509	-2.5999167
114	0x3f8b6888	1.0891275
115	0x401786e1	2.3676074
116	0xc0111be7	-2.267328
117	0x3e9010ae	0.28137726
118	0x3fb7e28f	1.4366015
119	0x3ed51011	0.4161382
120	0x3fa0f40e	1.257448
121	0x4057dba0	3.3727798
122	0xbfa74711	-1.3068563
123	0xc00c4251	-2.1915476
124	0xc01a1200	-2.4073486
125	0xbfe2f412	-1.7730734
126	0x3e70c577	0.23512827
127	0x40889f60	4.269455
128	0x40d37956	6.6085615
129	0x409184b9	4.5474515
130	0x3feaaf4d	1.8334748
131	0x3f3c7846	0.7362102
132	0xc0928571	-4.578789
133	0x40983ea2	4.7576456
134	0xc0da5ec3	-6.8240676
135	0x3fd2d284	1.6470494
136	0xc074c946	-3.8247848
137	0xc01cd8ab	-2.4507244
138	0xc03bd2af	-2.934734
139	0x40e88abf	7.266937
140	0xc0c597b0	-6.1747665
141	0x40a43008	5.130863
142	0xc0e49eea	-7.1443987
143	0x401eafd1	2.479481
144	0xbf7782d8	-0.96684027
145	0x3f5a9e3b	0.8539769
146	0x3fe9808b	1.8242353
147	0xbdbefbfe	-0.093254074
148	0xc01c4617	-2.441778
149	0xbf8750ad	-1.0571495
150	0x3fb92943	1.4465717
151	0xc0761b09	-3.8454
152	0x4035de6a	2.8417
153	0x3f9f6c2d	1.2454888
154	0xbf028bcd	-0.5099457
155	0xbfee995d	-1.8640553
156	0x406e55a2	3.7239766
157	0xc007cf41	-2.1220248
158	0x3f8682c1	1.0508653
159	0x4017b952	2.370686
160	0xbe799cae	-0.24376175
161	0x3f2bb343	0.67070407
162	0x3f9f4c1e	1.2445104
163	0x4081c5bb	4.055387
164	0xc0a21b88	-5.0658607
165	0xbf8a1a81	-1.0789338
166	0x4020b537	2.5110605
167	0x3ea3da04	0.3200227
168	0x3e32b532	0.17451933
169	0x3fa281bd	1.2695843
170	0xc0803d36	-4.007472
171	0x40047aed	2.0700028
172	0xbf83ff41	-1.0312272
173	0xc08cb9b6	-4.39767
174	0x40897ecd	4.2967286
175	0x4075efea	3.8427682
176	0x403d5c48	2.9587574
177	0xc0c7bb87	-6.2416415
178	0xc0b918e3	-5.784288
179	0xc0719f1e	-3.7753367
180	0xc10326c3	-8.196963
181	0xbf46831c	-0.7754381
182	0x3f664be2	0.8995954
183	0xc101a2ec	-8.102276
184	0x3f6e0e9b	0.92991036
185	0xbe101652	-0.14071015
186	0xc06ab44e	-3.667255
187	0xc0bf7045	-5.982455
188	0x405f13ec	3.485591
189	0xbee31315	-0.44350496
190	0xc0111925	-2.2671597
191	0x408607a9	4.188435
192	0xc06b21f7	-3.673948
193	0x40350f37	2.8290536
194	0x3fd4518a	1.6587384
195	0xbf0b99de	-0.5453166
196	0xc036ef3f	-2.8583524
197	0xbfc2a25a	-1.5205796
198	0x3fc236f5	1.5173022
199	0xc094a3f6	-4.645015
200	0x4083515d	4.103682
201	0x3f8358e0	1.0261497
202	0xc0e52fbc	-7.162077
203	0xc09264c3	-4.5748
204	0xbfba0488	-1.4532633
205	0x3f49053b	0.78523606
206	0x40bb1c14	5.8471775
207	0x4101f72b	8.122844
208	0xc0d505f6	-6.6569777
209	0xbf39605e	-0.7241267
210	0x4028ec28	2.6394138
211	0x40179760	2.3686142
212	0xc0d628e2	-6.6924906
213	0xbf6f2a45	-0.93423873
214	0x3f41ec30	0.7575102
215	0xc0952f49	-4.662022
216	0xc001d64f	-2.0287054
217	0x40893df1	4.288811
218	0xbf9a8b39	-1.2073737
219	0xc025a287	-2.588045
220	0x3fe44751	1.7834264
221	0xc050620d	-3.2559845
222	0x40ac13aa	5.3774004
223	0xc0988d02	-4.767213
224	0xbf62a8d4	-0.8853886
225	0xbf90e4ca	-1.1319821
226	0x3f1d2d01	0.61396796
227	0xbf010562	-0.5039884
228	0xc03c4817	-2.9419
229	0xc039da3f	-2.9039457
230	0x3f11cc80	0.5695267
231	0xc06be780	-3.6860046
232	0x40d271cf	6.5763927
233	0x40233dbf	2.5506437
234	0x403a1332	2.9074216
235	0xbfb3c17f	-1.4043425
236	0x3ff9dd05	1.9520575
237	0xc085fbbb	-4.186979
238	0xc009373a	-2.1439958
239	0x40369426	2.8527923
240	0xc0810929	-4.032368
241	0xc0a56ca0	-5.16951
242	0xbebdfeb7	-0.37108395
243	0xc030483f	-2.7544096
244	0xc0bdaa52	-5.927041
245	0x3fb8b605	1.4430548
246	0xbf658e25	-0.8967002
247	0xc0fc3ac5	-7.882174
248	0x402f92c7	2.7433336
249	0x3e7407c8	0.23831093
250	0x3f22656f	0.63436025
251	0xc0983ebb	-4.7576575
252	0xbf4cd670	-0.80014706
253	0x3fad1cd6	1.3524425
254	0x3e0a5d59	0.13512172
255	0xbfc3f5aa	-1.5309346

linear.weight f4 [2097, 16]
0	0x3d0c5e6a	0.034269728
1	0x3e41ec41	0.1893778
2	0xbf69ee77	-0.91379493
3	0xbfb5c3fe	-1.4200437
4	0xbea561f1	-0.32301286
5	0xbf7398cd	-0.9515503
6	0x3f9f426d	1.2442147
7	0xc0447f08	-3.0702534
8	0x3ee2d7ab	0.44305167
9	0x3fffa48a	1.9972088
10	0xbec96b7d	-0.3933982
11	0xbed361a5	-0.41285434
12	0x3f681714	0.90660214
13	0x3ea5de0c	0.3239597
14	0x3f31fea5	0.6952918
15	0x3f686d77	0.9079203
16	0xbd475f73	-0.04867501
17	0x3eed950d	0.4640278
18	0xbf3a7fa4	-0.72851014
19	0xbf871cc3	-1.0555652
20	0xbee6c06c	-0.4506868
21	0xbf30c984	-0.6905749
22	0x3f84c1b9	1.037162
23	0xc04dd5f9	-3.2161849
24	0x3f588862	0.84583104
25	0x3ff27bde	1.8944051
26	0xbf3d1d09	-0.7387243
27	0xbd020bdf	-0.031749602
28	0x3f465a5f	0.77481645
29	0x3f0778cb	0.5291869
30	0x3ee84c85	0.4537088
31	0x3f8bef36	1.0932376
32	0x3dab28f1	0.08357418
33	0x3ed4ca2a	0.4156049
34	0xbf2bf532	-0.67171013
35	0xbfa930d1	-1.3218023
36	0xbf73c750	-0.95226
37	0xbf80ef91	-1.007311
38	0x3f94b853	1.1618751
39	0xc06c3085	-3.6904614
40	0x3dd6a1c5	0.10480074
41	0x3fc88a2b	1.5667166
42	0xbf18000e	-0.59375083
43	0xbe80daf8	-0.2516706
44	0x3f9c4f5c	1.2211719
45	0x3e4bfa24	0.1991964
46	0x3ebd07e6	0.3692009
47	0x3f49348a	0.78595793
48	0x3ea1afbb	0.31579384
49	0x3ed58074	0.41699564
50	0xbf1e1fce	-0.6176728
51	0xbfa2d186	-1.2720191
52	0xbf30f275	-0.6911996
53	0xbecef26c	-0.40419328
54	0x3fb1602f	1.3857478
55	0xc03b3f66	-2.9257445
56	0x3f4fe4d9	0.8120857
57	0x3ff2a7db	1.8957475
58	0xbe991685	-0.29899994
59	0xbe57f705	-0.21090324
60	0x3f75ae5e	0.9596919
61	0x3ec7694d	0.38947526
62	0x3f359cc3	0.70942324
63	0x3f7bdf56	0.9838766
64	0xbe8a54cc	-0.2701782
65	0xbc5ed50b	-0.013600598
66	0xbf00d224	-0.5032065
67	0xbfb5c68c	-1.4201217
68	0xbf261ba4	-0.64885926
69	0xbf6d496e	-0.9269017
70	0x3fa74ccd	1.3070313
71	0xc04ed9b5	-3.2320378
72	0x3f003faa	0.50097144
73	0x40098202	2.14856
74	0xbf796e9c	-0.974344
75	0xbdc1cc0f	-0.09462749
76	0x3f2b176e	0.66832626
77	0x3e64f739	0.22359933
78	0x3f5962ae	0.849162
79	0x3f8dd9c2	1.108208
80	0xbe400b40	-0.18754292
81	0x3d108cdf	0.035290595
82	0xbf63c954	-0.8897908
83	0xbfaeae7b	-1.3646997
84	0xbf42e7c3	-0.7613489
85	0xbf51b6f1	-0.8191977
86	0x3fa9e97f	1.3274382
87	0xc05efdd2	-3.484242
88	0x3ede9952	0.4347635
89	0x40048658	2.0706997
90	0xbf08ee2a	-0.5348841
91	0xbd73ccbb	-0.059521418
92	0x3f87d7ab	1.0612692
93	0x3ec006c2	0.37505156
94	0x3f79443d	0.9736975
95	0x3f61b1ae	0.8816174
96	0x3e0c227a	0.13685027
97	0x3ea0f629	0.31437805
98	0xbf7ccd6f	-0.98750967
99	0xbfb35528	-1.4010363
100	0xbf4f08c1	-0.8087273
101	0xbf5f75a9	-0.8728891
102	0x3fb0f9e1	1.3826257
103	0xc056d51e	-3.3567576
104	0x3f27288b	0.6529624
105	0x4013182c	2.2983503
106	0xbf3efa7a	-0.74600947
107	0xbefcca31	-0.4937301
108	0x3f281e65	0.6567138
109	0x3ed40745	0.41411796
110	0x3f8c5439	1.0963203
111	0x3f1e0656	0.6172842
112	0x3cce8282	0.025208715
113	0xbb3d1caa	-0.0028856196
114	0xbf577df0	-0.8417654
115	0xbfb8ccee	-1.443754
116	0xbf5ced3c	-0.8629949
117	0xbf8890b7	-1.0669163
118	0x3fb25930	1.3933468
119	0xc05334f9	-3.3001082
120	0x3f097cc5	0.5370601
121	0x400f6950	2.2408028
122	0xbed70754	-0.41997778
123	0xbe3efc6f	-0.18650983
124	0x3f450307	0.76957744
125	0x3ed110c6	0.4083311
126	0x3f50a497	0.81501144
127	0x3f41a26f	0.7563848
128	0x3dc8a787	0.09797578
129	0x3ddc898c	0.107684225
130	0xbf7dc978	-0.9913554
131	0xbfc939d6	-1.5720775
132	0xbf8f3735	-1.1188723
133	0xbf1d91ff	-0.615509
134	0x3fccc43d	1.5997387
135	0xc068a32f	-3.63496
136	0x3f15bb27	0.58488697
137	0x3fdc3f13	1.7206749
138	0xbe9f0703	-0.31060037
139	0xbf5ace05	-0.8547061
140	0x3f72943f	0.94757456
141	0x3ec535e9	0.38517693
142	0x3f6e8f0f	0.9318704
143	0x3fafbc25	1.3729292
144	0xbe77975e	-0.24178836
145	0x3e9432ff	0.28945157
146	0xbf5004ee	-0.8125752
147	0xbf9c6dae	-1.2220972
148	0xbf2b9698	-0.6702666
149	0xbf4b7c5d	-0.7948664
150	0x3fb11380	1.3834076
151	0xc0654412	-3.5822797
152	0x3edf6be7	0.4363701
153	0x40106b01	2.256531
154	0xbf35f0a5	-0.7107032
155	0xbd8f59c5	-0.06999544
156	0x3fa7bd92	1.3104727
157	0x3e53df64	0.20690686
158	0x3f1ce936	0.6129335
159	0x3f51e612	0.81991684
160	0xbe5cb61b	-0.21553843
161	0x3f06e936	0.526996
162	0xbf055921	-0.52089125
163	0xbf797783	-0.97447985
164	0xbefeebf9	-0.49789408
165	0xbfa457aa	-1.2839253
166	0x3fc63f8f	1.5488147
167	0xc055c69c	-3.3402472
168	0x3f16c4cf	0.58894056
169	0x400a6909	2.1626608
170	0xbf2ad0d4	-0.66724896
171	0xbd44ffa8	-0.048095375
172	0x3f86fdca	1.05462
173	0xbd9ab03b	-0.075531445
174	0x3f350911	0.7071696
175	0x3f960f70	1.1723461
176	0xbd91a8f9	-0.07112307
177	0x3edee17f	0.43531415
178	0xbf80ae41	-1.0053178
179	0xbfb07499	-1.3785583
180	0xbf0542ce	-0.5205506
181	0xbf8b93ed	-1.0904518
182	0x3f494b78	0.7863078
183	0xc0322271	-2.7833521
184	0x3f1ea1d6	0.6196569
185	0x3fbd222a	1.4776051
186	0xbf1556cd	-0.5833557
187	0xbe9b0c65	-0.30282894
188	0x3f3853f6	0.72003114
189	0x3f1fa3d7	0.62359375
190	0x3f16b0b9	0.5886341
191	0x3f6dc80e	0.92883384
192	0xbcd10fad	-0.02552017
193	0x3e46faed	0.19431658
194	0xbed18661	-0.40922835
195	0xbf94b608	-1.1618052
196	0xbf114093	-0.5673916
197	0xbfac9817	-1.3483914
198	0x3f5e10d0	0.86744404
199	0xc044e0ea	-3.0762277
200	0x3f441d34	0.7660706
201	0x3fec009e	1.8437688
202	0xbf64d4db	-0.8938729
203	0x3d3c4c86	0.045971416
204	0x3f8a4235	1.0801455
205	0x3e19d591	0.15022875
206	0x3fa26430	1.2686825
207	0x3f8cf8ee	1.1013467
208	0xbde5d687	-0.112225585
209	0x3ecacf86	0.39611453
210	0xbf1f7984	-0.62294793
211	0xbf9fe679	-1.249221
212	0xbf533d5f	-0.8251552
213	0xbf67e670	-0.90585995
214	0x3f9e01f8	1.2344351
215	0xc05cef7b	-3.4521167
216	0x3f343e58	0.7040763
217	0x400b4364	2.1759882
218	0xbee7766f	-0.45207545
219	0x3e442a5a	0.19156781
220	0x3f8da544	1.106606
221	0x3d104711	0.035224024
222	0x3f45bf7c	0.77245307
223	0x3f9e2ca6	1.2357376
224	0xbe4deae7	-0.2010914
225	0x3cd205bb	0.025637498
226	0xbfa2d00b	-1.271974
227	0xbfa3b2fd	-1.2788998
228	0xbf1c5ec5	-0.61082107
229	0xbf0c0ed6	-0.5471014
230	0x3fbd99e5	1.481259
231	0xc05e832e	-3.4767566
232	0x3ec3948d	0.38199273
233	0x400a7547	2.163408
234	0xbf1b13d7	-0.6057715
235	0xbec70ab3	-0.3887535
236	0x3f1ca258	0.61185217
237	0x3e3f5717	0.18685566
238	0x3f2c0a96	0.6720365
239	0x3f349115	0.7053388
240	0xbebb497e	-0.36579508
241	0x3e26ed68	0.16301501
242	0xbf2947ec	-0.6612537
243	0xbf92ccae	-1.1468713
244	0xbed07682	-0.40715414
245	0xbf241b58	-0.64104223
246	0x3f67d426	0.9055809
247	0xc051a19d	-3.275489
248	0x3f398583	0.7246935
249	0x3ffe6b83	1.987656
250	0xbecf5b47	-0.40499327
251	0xbe6ad1c4	-0.22931582
252	0x3f60753b	0.8767888
253	0x3f0f2eb8	0.5593066
254	0x3f0b528c	0.5442283
255	0x3f621d02	0.8832551

linear.bias f4 [2097]
0	0xc08aee86	-4.3416166
1	0xc082d98c	-4.089056
2	0xc09a6ca9	-4.825764
3	0xc08df02b	-4.4355674
4	0xc08c4d8a	-4.384465
5	0xc06c4d2a	-3.6922097
6	0xc082bbe9	-4.0854383
7	0xc07fe3d2	-3.99828
8	0xc0a8dd44	-5.27701
9	0xc08b062f	-4.344505
10	0xc09135e2	-4.5378275
11	0xc0c4fe56	-6.156047
12	0xc0ae8b76	-5.454524
13	0xc08999ce	-4.300025
14	0xc08a5b75	-4.323664
15	0xc08d0cda	-4.407819
16	0xc0ac4c48	-5.3843117
17	0xc085680e	-4.168952
18	0xc08cfec2	-4.4060984
19	0xc0828a1e	-4.07936
20	0xc08f5e44	-4.480257
21	0xc090f428	-4.529804
22	0xc07dbc28	-3.9646091
23	0xc0855c79	-4.167538
24	0xc08e7402	-4.451661
25	0xc0900a3f	-4.5012507
26	0xc092017d	-4.5626817
27	0xc07eee21	-3.9832842
28	0xc07016fe	-3.7514033
29	0xc0995a66	-4.792285
30	0xc090952a	-4.5182085
31	0xc082ae97	-4.083812
32	0xc0c245be	-6.0710135
33	0xc08d72ce	-4.4202642
34	0xc09c49be	-4.8840017
35	0xc0a4c986	-5.1496
36	0xc095f52b	-4.6861777
37	0xc082cdb6	-4.087611
38	0xc081284b	-4.0361686
39	0xc09a9418	-4.830578
40	0xc072fb54	-3.7965899
41	0xc0848bab	-4.1420493
42	0xc083a528	-4.1139107
43	0xc08bdf54	-4.3710117
44	0xc085c4c4	-4.1802692
45	0xc08c3ff3	-4.3828063
46	0xc082ef2a	-4.091695
47	0xc0839eac	-4.113119
48	0xc0797f1d	-3.8983834
49	0xc080e43d	-4.027861
50	0xc0902bf6	-4.5053663
51	0xc08516ec	-4.159048
52	0xc0938b37	-4.610744
53	0xc089ddad	-4.30831
54	0xc0831b0b	-4.097051
55	0xc0873ed8	-4.2264214
56	0xc07a1d86	-3.908052
57	0xc07d1fb8	-3.955061
58	0xc087bea8	-4.2420235
59	0xc09619f5	-4.6906686
60	0xc09e31b8	-4.943569
61	0xc08f2600	-4.4733887
62	0xc0828b13	-4.079477
63	0xc089b50a	-4.3033495
64	0xc09c959b	-4.8932624
65	0xc085c165	-4.1798577
66	0xc0a54cd0	-5.1656265
67	0xc097297a	-4.723813
68	0xc086c57c	-4.211607
69	0xc0912213	-4.5354095
70	0xc08e7485	-4.4517236
71	0xc0b49fbd	-5.6444993
72	0xc08bc864	-4.3682117
73	0xc0961bf1	-4.690911
74	0xc0959903	-4.674928
75	0xc080bb61	-4.0228734
76	0xc07ec969	-3.981043
77	0xc083cf96	-4.11909
78	0xc08d74d4	-4.4205112
79	0xc0749b64	-3.8219843
80	0xc08513a0	-4.1586456
81	0xc08dfc5e	-4.4370565
82	0xc08a7a02	-4.3273935
83	0xc069efc1	-3.6552584
84	0xc09225f1	-4.5671315
85	0xc0ae2a3d	-5.442656
86	0xc0a7d9af	-5.2453227
87	0xc0843755	-4.1317544
88	0xc0858dc4	-4.1735554
89	0xc082554b	-4.0729117
90	0xc090f425	-4.529803
91	0xc0d24be3	-6.5717635
92	0xc08188f2	-4.047967
93	0xc0869173	-4.205255
94	0xc0880723	-4.250871
95	0xc0846995	-4.1378884
96	0xc08b38a1	-4.3506627
97	0xc08c59da	-4.385968
98	0xc0a23621	-5.0691075
99	0xc0a2141b	-5.0649543
100	0xc07130b0	-3.7685966
101	0xc0b9ebbe	-5.810027
102	0xc08ce0c4	-4.402437
103	0xc0989893	-4.768625
104	0xc085d85c	-4.182661
105	0xc084d516	-4.1510115
106	0xc0809d19	-4.019177
107	0xc092a47b	-4.582578
108	0xc094b356	-4.6468916
109	0xc06625ea	-3.596064
110	0xc0887fbe	-4.2655935
111	0xc099676d	-4.793875
112	0xc08e8ccf	-4.4546885
113	0xc0894ead	-4.290854
114	0xc09e20c1	-4.9414983
115	0xc0876aec	-4.231802
116	0xc0919793	-4.5497527
117	0xc08b4389	-4.351994
118	0xc094586d	-4.635794
119	0xc0876d56	-4.2320967
120	0xc0bb663b	-5.8562293
121	0xc0824484	-4.0708637
122	0xc09038b0	-4.50692
123	0xc08cdc73	-4.4019103
124	0xc08c35a6	-4.381549
125	0xc089de21	-4.3083653
126	0xc0920eac	-4.564291
127	0xc09a6c58	-4.8257256
128	0xc09e2daf	-4.9430766
129	0xc084610a	-4.1368456
130	0xc080792a	-4.0147905
131	0xc083b47c	-4.115782
132	0xc07bc791	-3.9340556
133	0xc0b3e82d	-5.622092
134	0xc0d75b35	-6.7298837
135	0xc08dfeaa	-4.437337
136	0xc08bfa90	-4.3743362
137	0xc0727be7	-3.7888124
138	0xc0903ad9	-4.5071836
139	0xc058ba8f	-3.3863866
140	0xc08d21b0	-4.4103622
141	0xc087f006	-4.2480497
142	0xc08c273e	-4.3797903
143	0xc0975008	-4.7285194
144	0xc0c52c68	-6.1616707
145	0xc0ac8165	-5.390795
146	0xc08826c8	-4.254734
147	0xc0813105	-4.037234
148	0xc08c9feb	-4.394521
149	0xc0835aa4	-4.1048145
150	0xc0ab3c1f	-5.351089
151	0xc08805f0	-4.250725
152	0xc081dd80	-4.0582886
153	0xc0909f09	-4.5194135
154	0xc0afedfe	-5.497802
155	0xc08586a1	-4.172684
156	0xc09c8a33	-4.89187
157	0xc0910c48	-4.532749
158	0xc0b742ae	-5.7268896
159	0xc08213ef	-4.0649333
160	0xc0774f35	-3.8642094
161	0xc0889fdf	-4.2695155
162	0xc09213ec	-4.564932
163	0xc0a595ef	-5.1745524
164	0xc08925b1	-4.285851
165	0xc07e1bb4	-3.9704409
166	0xc085aeaa	-4.1775713
167	0xc1021259	-8.129479
168	0xc0992886	-4.7861967
169	0xc09581a0	-4.6720734
170	0xc08a41ad	-4.320517
171	0xc07f863c	-3.992568
172	0xc0a01050	-5.0019913
173	0xc085d5cc	-4.1823483
174	0xc08cf551	-4.404946
175	0xc067ce37	-3.6219614
176	0xc084307b	-4.130918
177	0xc0930098	-4.5938225
178	0xc086e302	-4.215211
179	0xc0780ec4	-3.8759012
180	0xc08a057f	-4.313171
181	0xc073754d	-3.8040345
182	0xc083a45c	-4.1138134
183	0xc0dfab35	-6.9896493
184	0xc08dfb98	-4.436962
185	0xc0831f6e	-4.0975866
186	0xc0c89e9d	-6.269362
187	0xc09763f5	-4.730952
188	0xc0c104c3	-6.0318313
189	0xc095e28f	-4.683906
190	0xc079dd58	-3.9041348
191	0xc09d2d4b	-4.911779
192	0xc08bfe08	-4.3747597
193	0xc08a59b2	-4.323449
194	0xc0894c5b	-4.2905707
195	0xc08bf11e	-4.3731833
196	0xc0805da8	-4.0114326
197	0xc0a4ac22	-5.1460123
198	0xc08ba04d	-4.363318
199	0xc08424b5	-4.129481
200	0xc094d880	-4.651428
201	0xc0964f5f	-4.697189
202	0xc0a5a9f8	-5.176998
203	0xc08a10bc	-4.314543
204	0xc0830519	-4.0943723
205	0xc09e364b	-4.9441276
206	0xc07bad7f	-3.9324644
207	0xc0a76ac1	-5.2317815
208	0xc08d4925	-4.415179
209	0xc086649a	-4.1997805
210	0xc0837500	-4.108032
211	0xc08055f5	-4.010493
212	0xc08e1095	-4.439524
213	0xc0852e16	-4.1618757
214	0xc095fba9	-4.68697
215	0xc07800fa	-3.8750596
216	0xc0904074	-4.507868
217	0xc0b0c51b	-5.5240607
218	0xc07bd674	-3.9349642
219	0xc09406f5	-4.6258492
220	0xc08932cc	-4.287451
221	0xc08915a3	-4.283891
222	0xc0a4768a	-5.13947
223	0xc089c686	-4.305484
224	0xc08d311d	-4.4122453
225	0xc08e422f	-4.445579
226	0xc084217a	-4.1290865
227	0xc0880edc	-4.251814
228	0xc0b72de5	-5.7243524
229	0xc07add86	-3.9197707
230	0xc08f3268	-4.474903
231	0xc088094a	-4.251134
232	0xc07b3cc1	-3.9255831
233	0xc08ac316	-4.336314
234	0xc094251c	-4.62953
235	0xc0880612	-4.250741
236	0xc0670e0b	-3.610232
237	0xc07789a5	-3.8677762
238	0xc08496d3	-4.143411
239	0xc0825dc2	-4.073945
240	0xc0b012fb	-5.502317
241	0xc0a2a9cd	-5.0832276
242	0xc08d4620	-4.41481
243	0xc08c3f75	-4.382746
244	0xc085519b	-4.1662116
245	0xc0a0ea28	-5.0285835
246	0xc08f029e	-4.4690695
247	0xc07d45bd	-3.9573815
248	0xc0971a42	-4.7219553
249	0xc07f4713	-3.988713
250	0xc08428c8	-4.129978
251	0xc0838139	-4.1095243
252	0xc0947fea	-4.6406145
253	0xc08517ea	-4.159169
254	0xc078b2a1	-3.8859026
255	0xc0803c7f	-4.007385
